…
test_initialization: false
average_loss: 200
iter_size: 1
I1205 05:03:08.008998 17222 solver.cpp:77] Creating training net from train_net file: train.prototxt
I1205 05:03:08.010164 17222 net.cpp:51] Initializing net from parameters: 
state {
  phase: TRAIN
}
layer {
  name: "data"
  type: "Python"
  top: "data"
  top: "label"
  python_param {
    module: "data_layer"
    layer: "TrainingDataLayer"
    param_str: "{\'mode\': \'train\', \'mean\': (104.00699, 116.66877, 122.67892), \'seed\': 1337, \'data_dir\': \'/jet/prs/workspace/VOCdevkit/VOC2012\'}"
  }
}
layer {
  name: "conv1_1"
  type: "Convolution"
  bottom: "data"
  top: "conv1_1"
  param {
    lr_mult: 1
    decay_mult: 1
  }
  param {
    lr_mult: 2
    decay_mult: 0
  }
  convolution_param {
    num_output: 64
    pad: 100
    kernel_size: 3
    stride: 1
  }
}
layer {
  name: "relu1_1"
  type: "ReLU"
  bottom: "conv1_1"
  top: "conv1_1"
}
layer {
  name: "conv1_2"
  type: "Convolution"
  bottom: "conv1_1"
  top: "conv1_2"
  param {
    lr_mult: 1
    decay_mult: 1
  }
  param {
    lr_mult: 2
    decay_mult: 0
  }
  convolution_param {
    num_output: 64
    pad: 1
    kernel_size: 3
    stride: 1
  }
}
layer {
  name: "relu1_2"
  type: "ReLU"
  bottom: "conv1_2"
  top: "conv1_2"
}
layer {
  name: "pool1"
  type: "Pooling"
  bottom: "conv1_2"
  top: "pool1"
  pooling_param {
    pool: MAX
    kernel_size: 2
    stride: 2
  }
}
layer {
  name: "conv2_1"
  type: "Convolution"
  bottom: "pool1"
  top: "conv2_1"
  param {
    lr_mult: 1
    decay_mult: 1
  }
  param {
    lr_mult: 2
    decay_mult: 0
  }
  convolution_param {
    num_output: 128
    pad: 1
    kernel_size: 3
    stride: 1
  }
}
layer {
  name: "relu2_1"
  type: "ReLU"
  bottom: "conv2_1"
  top: "conv2_1"
}
layer {
  name: "conv2_2"
  type: "Convolution"
  bottom: "conv2_1"
  top: "conv2_2"
  param {
    lr_mult: 1
    decay_mult: 1
  }
  param {
    lr_mult: 2
    decay_mult: 0
  }
  convolution_param {
    num_output: 128
    pad: 1
    kernel_size: 3
    stride: 1
  }
}
layer {
  name: "relu2_2"
  type: "ReLU"
  bottom: "conv2_2"
  top: "conv2_2"
}
layer {
  name: "pool2"
  type: "Pooling"
  bottom: "conv2_2"
  top: "pool2"
  pooling_param {
    pool: MAX
    kernel_size: 2
    stride: 2
  }
}
layer {
  name: "conv3_1"
  type: "Convolution"
  bottom: "pool2"
  top: "conv3_1"
  param {
    lr_mult: 1
    decay_mult: 1
  }
  param {
    lr_mult: 2
    decay_mult: 0
  }
  convolution_param {
    num_output: 256
    pad: 1
    kernel_size: 3
    stride: 1
  }
}
layer {
  name: "relu3_1"
  type: "ReLU"
  bottom: "conv3_1"
  top: "conv3_1"
}
layer {
  name: "conv3_2"
  type: "Convolution"
  bottom: "conv3_1"
  top: "conv3_2"
  param {
    lr_mult: 1
    decay_mult: 1
  }
  param {
    lr_mult: 2
    decay_mult: 0
  }
  convolution_param {
    num_output: 256
    pad: 1
    kernel_size: 3
    stride: 1
  }
}
layer {
  name: "relu3_2"
  type: "ReLU"
  bottom: "conv3_2"
  top: "conv3_2"
}
layer {
  name: "conv3_3"
  type: "Convolution"
  bottom: "conv3_2"
  top: "conv3_3"
  param {
    lr_mult: 1
    decay_mult: 1
  }
  param {
    lr_mult: 2
    decay_mult: 0
  }
  convolution_param {
    num_output: 256
    pad: 1
    kernel_size: 3
    stride: 1
  }
}
layer {
  name: "relu3_3"
  type: "ReLU"
  bottom: "conv3_3"
  top: "conv3_3"
}
layer {
  name: "pool3"
  type: "Pooling"
  bottom: "conv3_3"
  top: "pool3"
  pooling_param {
    pool: MAX
    kernel_size: 2
    stride: 2
  }
}
layer {
  name: "conv4_1"
  type: "Convolution"
  bottom: "pool3"
  top: "conv4_1"
  param {
    lr_mult: 1
    decay_mult: 1
  }
  param {
    lr_mult: 2
    decay_mult: 0
  }
  convolution_param {
    num_output: 512
    pad: 1
    kernel_size: 3
    stride: 1
  }
}
layer {
  name: "relu4_1"
  type: "ReLU"
  bottom: "conv4_1"
  top: "conv4_1"
}
layer {
  name: "conv4_2"
  type: "Convolution"
  bottom: "conv4_1"
  top: "conv4_2"
  param {
    lr_mult: 1
    decay_mult: 1
  }
  param {
    lr_mult: 2
    decay_mult: 0
  }
  convolution_param {
    num_output: 512
    pad: 1
    kernel_size: 3
    stride: 1
  }
}
layer {
  name: "relu4_2"
  type: "ReLU"
  bottom: "conv4_2"
  top: "conv4_2"
}
layer {
  name: "conv4_3"
  type: "Convolution"
  bottom: "conv4_2"
  top: "conv4_3"
  param {
    lr_mult: 1
    decay_mult: 1
  }
  param {
    lr_mult: 2
    decay_mult: 0
  }
  convolution_param {
    num_output: 512
    pad: 1
    kernel_size: 3
    stride: 1
  }
}
layer {
  name: "relu4_3"
  type: "ReLU"
  bottom: "conv4_3"
  top: "conv4_3"
}
layer {
  name: "pool4"
  type: "Pooling"
  bottom: "conv4_3"
  top: "pool4"
  pooling_param {
    pool: MAX
    kernel_size: 2
    stride: 2
  }
}
layer {
  name: "conv5_1"
  type: "Convolution"
  bottom: "pool4"
  top: "conv5_1"
  param {
    lr_mult: 1
    decay_mult: 1
  }
  param {
    lr_mult: 2
    decay_mult: 0
  }
  convolution_param {
    num_output: 512
    pad: 1
    kernel_size: 3
    stride: 1
  }
}
layer {
  name: "relu5_1"
  type: "ReLU"
  bottom: "conv5_1"
  top: "conv5_1"
}
layer {
  name: "conv5_2"
  type: "Convolution"
  bottom: "conv5_1"
  top: "conv5_2"
  param {
    lr_mult: 1
    decay_mult: 1
  }
  param {
    lr_mult: 2
    decay_mult: 0
  }
  convolution_param {
    num_output: 512
    pad: 1
    kernel_size: 3
    stride: 1
  }
}
layer {
  name: "relu5_2"
  type: "ReLU"
  bottom: "conv5_2"
  top: "conv5_2"
}
layer {
  name: "conv5_3"
  type: "Convolution"
  bottom: "conv5_2"
  top: "conv5_3"
  param {
    lr_mult: 1
    decay_mult: 1
  }
  param {
    lr_mult: 2
    decay_mult: 0
  }
  convolution_param {
    num_output: 512
    pad: 1
    kernel_size: 3
    stride: 1
  }
}
layer {
  name: "relu5_3"
  type: "ReLU"
  bottom: "conv5_3"
  top: "conv5_3"
}
layer {
  name: "pool5"
  type: "Pooling"
  bottom: "conv5_3"
  top: "pool5"
  pooling_param {
    pool: MAX
    kernel_size: 2
    stride: 2
  }
}
layer {
  name: "fc6"
  type: "Convolution"
  bottom: "pool5"
  top: "fc6"
  param {
    lr_mult: 1
    decay_mult: 1
  }
  param {
    lr_mult: 2
    decay_mult: 0
  }
  convolution_param {
    num_output: 4096
    pad: 0
    kernel_size: 7
    stride: 1
  }
}
layer {
  name: "relu6"
  type: "ReLU"
  bottom: "fc6"
  top: "fc6"
}
layer {
  name: "drop6"
  type: "Dropout"
  bottom: "fc6"
  top: "fc6"
  dropout_param {
    dropout_ratio: 0.5
  }
}
layer {
  name: "fc7"
  type: "Convolution"
  bottom: "fc6"
  top: "fc7"
  param {
    lr_mult: 1
    decay_mult: 1
  }
  param {
    lr_mult: 2
    decay_mult: 0
  }
  convolution_param {
    num_output: 4096
    pad: 0
    kernel_size: 1
    stride: 1
  }
}
layer {
  name: "relu7"
  type: "ReLU"
  bottom: "fc7"
  top: "fc7"
}
layer {
  name: "drop7"
  type: "Dropout"
  bottom: "fc7"
  top: "fc7"
  dropout_param {
    dropout_ratio: 0.5
  }
}
layer {
  name: "score_fr"
  type: "Convolution"
  bottom: "fc7"
  top: "score_fr"
  param {
    lr_mult: 1
    decay_mult: 1
  }
  param {
    lr_mult: 2
    decay_mult: 0
  }
  convolution_param {
    num_output: 21
    pad: 0
    kernel_size: 1
    stride: 1
  }
}
layer {
  name: "upscore"
  type: "Deconvolution"
  bottom: "score_fr"
  top: "upscore"
  param {
    lr_mult: 0
  }
  convolution_param {
    num_output: 21
    bias_term: false
    kernel_size: 64
    stride: 32
  }
}
layer {
  name: "score"
  type: "Crop"
  bottom: "upscore"
  bottom: "data"
  top: "score"
  crop_param {
    axis: 2
    offset: 19
  }
}
layer {
  name: "loss"
  type: "SoftmaxWithLoss"
  bottom: "score"
  bottom: "label"
  top: "loss"
  loss_param {
    ignore_label: 255
    normalize: false
  }
}
I1205 05:03:08.010311 17222 layer_factory.hpp:77] Creating layer data
I1205 05:03:08.010953 17222 net.cpp:84] Creating Layer data
I1205 05:03:08.010980 17222 net.cpp:380] data -> data
I1205 05:03:08.010991 17222 net.cpp:380] data -> label
I1205 05:03:08.028952 17222 net.cpp:122] Setting up data
I1205 05:03:08.028983 17222 net.cpp:129] Top shape: 1 3 334 500 (501000)
I1205 05:03:08.029006 17222 net.cpp:129] Top shape: 1 1 334 500 (167000)
I1205 05:03:08.029009 17222 net.cpp:137] Memory required for data: 2672000
I1205 05:03:08.029013 17222 layer_factory.hpp:77] Creating layer data_data_0_split
I1205 05:03:08.029021 17222 net.cpp:84] Creating Layer data_data_0_split
I1205 05:03:08.029024 17222 net.cpp:406] data_data_0_split <- data
I1205 05:03:08.029031 17222 net.cpp:380] data_data_0_split -> data_data_0_split_0
I1205 05:03:08.029037 17222 net.cpp:380] data_data_0_split -> data_data_0_split_1
I1205 05:03:08.029099 17222 net.cpp:122] Setting up data_data_0_split
I1205 05:03:08.029125 17222 net.cpp:129] Top shape: 1 3 334 500 (501000)
I1205 05:03:08.029129 17222 net.cpp:129] Top shape: 1 3 334 500 (501000)
I1205 05:03:08.029132 17222 net.cpp:137] Memory required for data: 6680000
I1205 05:03:08.029135 17222 layer_factory.hpp:77] Creating layer conv1_1
I1205 05:03:08.029145 17222 net.cpp:84] Creating Layer conv1_1
I1205 05:03:08.029150 17222 net.cpp:406] conv1_1 <- data_data_0_split_0
I1205 05:03:08.029155 17222 net.cpp:380] conv1_1 -> conv1_1
I1205 05:03:08.734216 17222 net.cpp:122] Setting up conv1_1
I1205 05:03:08.734261 17222 net.cpp:129] Top shape: 1 64 532 698 (23765504)
I1205 05:03:08.734266 17222 net.cpp:137] Memory required for data: 101742016
I1205 05:03:08.734282 17222 layer_factory.hpp:77] Creating layer relu1_1
I1205 05:03:08.734294 17222 net.cpp:84] Creating Layer relu1_1
I1205 05:03:08.734299 17222 net.cpp:406] relu1_1 <- conv1_1
I1205 05:03:08.734305 17222 net.cpp:367] relu1_1 -> conv1_1 (in-place)
I1205 05:03:08.734849 17222 net.cpp:122] Setting up relu1_1
I1205 05:03:08.734880 17222 net.cpp:129] Top shape: 1 64 532 698 (23765504)
I1205 05:03:08.734884 17222 net.cpp:137] Memory required for data: 196804032
I1205 05:03:08.734887 17222 layer_factory.hpp:77] Creating layer conv1_2
I1205 05:03:08.734901 17222 net.cpp:84] Creating Layer conv1_2
I1205 05:03:08.734905 17222 net.cpp:406] conv1_2 <- conv1_1
I1205 05:03:08.734910 17222 net.cpp:380] conv1_2 -> conv1_2
I1205 05:03:08.739408 17222 net.cpp:122] Setting up conv1_2
I1205 05:03:08.739437 17222 net.cpp:129] Top shape: 1 64 532 698 (23765504)
I1205 05:03:08.739441 17222 net.cpp:137] Memory required for data: 291866048
I1205 05:03:08.739450 17222 layer_factory.hpp:77] Creating layer relu1_2
I1205 05:03:08.739459 17222 net.cpp:84] Creating Layer relu1_2
I1205 05:03:08.739462 17222 net.cpp:406] relu1_2 <- conv1_2
I1205 05:03:08.739466 17222 net.cpp:367] relu1_2 -> conv1_2 (in-place)
I1205 05:03:08.739925 17222 net.cpp:122] Setting up relu1_2
I1205 05:03:08.739949 17222 net.cpp:129] Top shape: 1 64 532 698 (23765504)
I1205 05:03:08.739953 17222 net.cpp:137] Memory required for data: 386928064
I1205 05:03:08.739956 17222 layer_factory.hpp:77] Creating layer pool1
I1205 05:03:08.739962 17222 net.cpp:84] Creating Layer pool1
I1205 05:03:08.739965 17222 net.cpp:406] pool1 <- conv1_2
I1205 05:03:08.739972 17222 net.cpp:380] pool1 -> pool1
I1205 05:03:08.740018 17222 net.cpp:122] Setting up pool1
I1205 05:03:08.740034 17222 net.cpp:129] Top shape: 1 64 266 349 (5941376)
I1205 05:03:08.740037 17222 net.cpp:137] Memory required for data: 410693568
I1205 05:03:08.740041 17222 layer_factory.hpp:77] Creating layer conv2_1
I1205 05:03:08.740051 17222 net.cpp:84] Creating Layer conv2_1
I1205 05:03:08.740053 17222 net.cpp:406] conv2_1 <- pool1
I1205 05:03:08.740061 17222 net.cpp:380] conv2_1 -> conv2_1
I1205 05:03:08.742614 17222 net.cpp:122] Setting up conv2_1
I1205 05:03:08.742640 17222 net.cpp:129] Top shape: 1 128 266 349 (11882752)
I1205 05:03:08.742643 17222 net.cpp:137] Memory required for data: 458224576
I1205 05:03:08.742652 17222 layer_factory.hpp:77] Creating layer relu2_1
I1205 05:03:08.742660 17222 net.cpp:84] Creating Layer relu2_1
I1205 05:03:08.742663 17222 net.cpp:406] relu2_1 <- conv2_1
I1205 05:03:08.742671 17222 net.cpp:367] relu2_1 -> conv2_1 (in-place)
I1205 05:03:08.743566 17222 net.cpp:122] Setting up relu2_1
I1205 05:03:08.743592 17222 net.cpp:129] Top shape: 1 128 266 349 (11882752)
I1205 05:03:08.743595 17222 net.cpp:137] Memory required for data: 505755584
I1205 05:03:08.743615 17222 layer_factory.hpp:77] Creating layer conv2_2
I1205 05:03:08.743626 17222 net.cpp:84] Creating Layer conv2_2
I1205 05:03:08.743629 17222 net.cpp:406] conv2_2 <- conv2_1
I1205 05:03:08.743636 17222 net.cpp:380] conv2_2 -> conv2_2
I1205 05:03:08.747514 17222 net.cpp:122] Setting up conv2_2
I1205 05:03:08.747543 17222 net.cpp:129] Top shape: 1 128 266 349 (11882752)
I1205 05:03:08.747547 17222 net.cpp:137] Memory required for data: 553286592
I1205 05:03:08.747555 17222 layer_factory.hpp:77] Creating layer relu2_2
I1205 05:03:08.747560 17222 net.cpp:84] Creating Layer relu2_2
I1205 05:03:08.747563 17222 net.cpp:406] relu2_2 <- conv2_2
I1205 05:03:08.747568 17222 net.cpp:367] relu2_2 -> conv2_2 (in-place)
I1205 05:03:08.748158 17222 net.cpp:122] Setting up relu2_2
I1205 05:03:08.748179 17222 net.cpp:129] Top shape: 1 128 266 349 (11882752)
I1205 05:03:08.748183 17222 net.cpp:137] Memory required for data: 600817600
I1205 05:03:08.748186 17222 layer_factory.hpp:77] Creating layer pool2
I1205 05:03:08.748194 17222 net.cpp:84] Creating Layer pool2
I1205 05:03:08.748198 17222 net.cpp:406] pool2 <- conv2_2
I1205 05:03:08.748217 17222 net.cpp:380] pool2 -> pool2
I1205 05:03:08.748281 17222 net.cpp:122] Setting up pool2
I1205 05:03:08.748298 17222 net.cpp:129] Top shape: 1 128 133 175 (2979200)
I1205 05:03:08.748301 17222 net.cpp:137] Memory required for data: 612734400
I1205 05:03:08.748304 17222 layer_factory.hpp:77] Creating layer conv3_1
I1205 05:03:08.748313 17222 net.cpp:84] Creating Layer conv3_1
I1205 05:03:08.748317 17222 net.cpp:406] conv3_1 <- pool2
I1205 05:03:08.748322 17222 net.cpp:380] conv3_1 -> conv3_1
I1205 05:03:08.752115 17222 net.cpp:122] Setting up conv3_1
I1205 05:03:08.752144 17222 net.cpp:129] Top shape: 1 256 133 175 (5958400)
I1205 05:03:08.752149 17222 net.cpp:137] Memory required for data: 636568000
I1205 05:03:08.752158 17222 layer_factory.hpp:77] Creating layer relu3_1
I1205 05:03:08.752164 17222 net.cpp:84] Creating Layer relu3_1
I1205 05:03:08.752167 17222 net.cpp:406] relu3_1 <- conv3_1
I1205 05:03:08.752172 17222 net.cpp:367] relu3_1 -> conv3_1 (in-place)
I1205 05:03:08.752645 17222 net.cpp:122] Setting up relu3_1
I1205 05:03:08.752668 17222 net.cpp:129] Top shape: 1 256 133 175 (5958400)
I1205 05:03:08.752671 17222 net.cpp:137] Memory required for data: 660401600
I1205 05:03:08.752674 17222 layer_factory.hpp:77] Creating layer conv3_2
I1205 05:03:08.752684 17222 net.cpp:84] Creating Layer conv3_2
I1205 05:03:08.752687 17222 net.cpp:406] conv3_2 <- conv3_1
I1205 05:03:08.752693 17222 net.cpp:380] conv3_2 -> conv3_2
I1205 05:03:08.756531 17222 net.cpp:122] Setting up conv3_2
I1205 05:03:08.756559 17222 net.cpp:129] Top shape: 1 256 133 175 (5958400)
I1205 05:03:08.756563 17222 net.cpp:137] Memory required for data: 684235200
I1205 05:03:08.756569 17222 layer_factory.hpp:77] Creating layer relu3_2
I1205 05:03:08.756575 17222 net.cpp:84] Creating Layer relu3_2
I1205 05:03:08.756579 17222 net.cpp:406] relu3_2 <- conv3_2
I1205 05:03:08.756583 17222 net.cpp:367] relu3_2 -> conv3_2 (in-place)
I1205 05:03:08.757349 17222 net.cpp:122] Setting up relu3_2
I1205 05:03:08.757375 17222 net.cpp:129] Top shape: 1 256 133 175 (5958400)
I1205 05:03:08.757380 17222 net.cpp:137] Memory required for data: 708068800
I1205 05:03:08.757382 17222 layer_factory.hpp:77] Creating layer conv3_3
I1205 05:03:08.757395 17222 net.cpp:84] Creating Layer conv3_3
I1205 05:03:08.757400 17222 net.cpp:406] conv3_3 <- conv3_2
I1205 05:03:08.757405 17222 net.cpp:380] conv3_3 -> conv3_3
I1205 05:03:08.761502 17222 net.cpp:122] Setting up conv3_3
I1205 05:03:08.761529 17222 net.cpp:129] Top shape: 1 256 133 175 (5958400)
I1205 05:03:08.761548 17222 net.cpp:137] Memory required for data: 731902400
I1205 05:03:08.761555 17222 layer_factory.hpp:77] Creating layer relu3_3
I1205 05:03:08.761561 17222 net.cpp:84] Creating Layer relu3_3
I1205 05:03:08.761565 17222 net.cpp:406] relu3_3 <- conv3_3
I1205 05:03:08.761572 17222 net.cpp:367] relu3_3 -> conv3_3 (in-place)
I1205 05:03:08.762112 17222 net.cpp:122] Setting up relu3_3
I1205 05:03:08.762152 17222 net.cpp:129] Top shape: 1 256 133 175 (5958400)
I1205 05:03:08.762156 17222 net.cpp:137] Memory required for data: 755736000
I1205 05:03:08.762159 17222 layer_factory.hpp:77] Creating layer pool3
I1205 05:03:08.762166 17222 net.cpp:84] Creating Layer pool3
I1205 05:03:08.762168 17222 net.cpp:406] pool3 <- conv3_3
I1205 05:03:08.762173 17222 net.cpp:380] pool3 -> pool3
I1205 05:03:08.762234 17222 net.cpp:122] Setting up pool3
I1205 05:03:08.762251 17222 net.cpp:129] Top shape: 1 256 67 88 (1509376)
I1205 05:03:08.762254 17222 net.cpp:137] Memory required for data: 761773504
I1205 05:03:08.762257 17222 layer_factory.hpp:77] Creating layer conv4_1
I1205 05:03:08.762266 17222 net.cpp:84] Creating Layer conv4_1
I1205 05:03:08.762270 17222 net.cpp:406] conv4_1 <- pool3
I1205 05:03:08.762276 17222 net.cpp:380] conv4_1 -> conv4_1
I1205 05:03:08.770058 17222 net.cpp:122] Setting up conv4_1
I1205 05:03:08.770087 17222 net.cpp:129] Top shape: 1 512 67 88 (3018752)
I1205 05:03:08.770092 17222 net.cpp:137] Memory required for data: 773848512
I1205 05:03:08.770098 17222 layer_factory.hpp:77] Creating layer relu4_1
I1205 05:03:08.770104 17222 net.cpp:84] Creating Layer relu4_1
I1205 05:03:08.770108 17222 net.cpp:406] relu4_1 <- conv4_1
I1205 05:03:08.770114 17222 net.cpp:367] relu4_1 -> conv4_1 (in-place)
I1205 05:03:08.770673 17222 net.cpp:122] Setting up relu4_1
I1205 05:03:08.770696 17222 net.cpp:129] Top shape: 1 512 67 88 (3018752)
I1205 05:03:08.770699 17222 net.cpp:137] Memory required for data: 785923520
I1205 05:03:08.770702 17222 layer_factory.hpp:77] Creating layer conv4_2
I1205 05:03:08.770727 17222 net.cpp:84] Creating Layer conv4_2
I1205 05:03:08.770731 17222 net.cpp:406] conv4_2 <- conv4_1
I1205 05:03:08.770736 17222 net.cpp:380] conv4_2 -> conv4_2
I1205 05:03:08.778234 17222 net.cpp:122] Setting up conv4_2
I1205 05:03:08.778264 17222 net.cpp:129] Top shape: 1 512 67 88 (3018752)
I1205 05:03:08.778267 17222 net.cpp:137] Memory required for data: 797998528
I1205 05:03:08.778280 17222 layer_factory.hpp:77] Creating layer relu4_2
I1205 05:03:08.778285 17222 net.cpp:84] Creating Layer relu4_2
I1205 05:03:08.778290 17222 net.cpp:406] relu4_2 <- conv4_2
I1205 05:03:08.778293 17222 net.cpp:367] relu4_2 -> conv4_2 (in-place)
I1205 05:03:08.778911 17222 net.cpp:122] Setting up relu4_2
I1205 05:03:08.778934 17222 net.cpp:129] Top shape: 1 512 67 88 (3018752)
I1205 05:03:08.778939 17222 net.cpp:137] Memory required for data: 810073536
I1205 05:03:08.778941 17222 layer_factory.hpp:77] Creating layer conv4_3
I1205 05:03:08.778966 17222 net.cpp:84] Creating Layer conv4_3
I1205 05:03:08.778971 17222 net.cpp:406] conv4_3 <- conv4_2
I1205 05:03:08.778995 17222 net.cpp:380] conv4_3 -> conv4_3
I1205 05:03:08.786222 17222 net.cpp:122] Setting up conv4_3
I1205 05:03:08.786252 17222 net.cpp:129] Top shape: 1 512 67 88 (3018752)
I1205 05:03:08.786255 17222 net.cpp:137] Memory required for data: 822148544
I1205 05:03:08.786262 17222 layer_factory.hpp:77] Creating layer relu4_3
I1205 05:03:08.786269 17222 net.cpp:84] Creating Layer relu4_3
I1205 05:03:08.786273 17222 net.cpp:406] relu4_3 <- conv4_3
I1205 05:03:08.786278 17222 net.cpp:367] relu4_3 -> conv4_3 (in-place)
I1205 05:03:08.787221 17222 net.cpp:122] Setting up relu4_3
I1205 05:03:08.787247 17222 net.cpp:129] Top shape: 1 512 67 88 (3018752)
I1205 05:03:08.787251 17222 net.cpp:137] Memory required for data: 834223552
I1205 05:03:08.787255 17222 layer_factory.hpp:77] Creating layer pool4
I1205 05:03:08.787276 17222 net.cpp:84] Creating Layer pool4
I1205 05:03:08.787284 17222 net.cpp:406] pool4 <- conv4_3
I1205 05:03:08.787290 17222 net.cpp:380] pool4 -> pool4
I1205 05:03:08.787376 17222 net.cpp:122] Setting up pool4
I1205 05:03:08.787410 17222 net.cpp:129] Top shape: 1 512 34 44 (765952)
I1205 05:03:08.787412 17222 net.cpp:137] Memory required for data: 837287360
I1205 05:03:08.787415 17222 layer_factory.hpp:77] Creating layer conv5_1
I1205 05:03:08.787425 17222 net.cpp:84] Creating Layer conv5_1
I1205 05:03:08.787427 17222 net.cpp:406] conv5_1 <- pool4
I1205 05:03:08.787432 17222 net.cpp:380] conv5_1 -> conv5_1
I1205 05:03:08.794492 17222 net.cpp:122] Setting up conv5_1
I1205 05:03:08.794546 17222 net.cpp:129] Top shape: 1 512 34 44 (765952)
I1205 05:03:08.794551 17222 net.cpp:137] Memory required for data: 840351168
I1205 05:03:08.794558 17222 layer_factory.hpp:77] Creating layer relu5_1
I1205 05:03:08.794564 17222 net.cpp:84] Creating Layer relu5_1
I1205 05:03:08.794566 17222 net.cpp:406] relu5_1 <- conv5_1
I1205 05:03:08.794574 17222 net.cpp:367] relu5_1 -> conv5_1 (in-place)
I1205 05:03:08.795022 17222 net.cpp:122] Setting up relu5_1
I1205 05:03:08.795042 17222 net.cpp:129] Top shape: 1 512 34 44 (765952)
I1205 05:03:08.795045 17222 net.cpp:137] Memory required for data: 843414976
I1205 05:03:08.795048 17222 layer_factory.hpp:77] Creating layer conv5_2
I1205 05:03:08.795058 17222 net.cpp:84] Creating Layer conv5_2
I1205 05:03:08.795078 17222 net.cpp:406] conv5_2 <- conv5_1
I1205 05:03:08.795084 17222 net.cpp:380] conv5_2 -> conv5_2
I1205 05:03:08.802371 17222 net.cpp:122] Setting up conv5_2
I1205 05:03:08.802400 17222 net.cpp:129] Top shape: 1 512 34 44 (765952)
I1205 05:03:08.802404 17222 net.cpp:137] Memory required for data: 846478784
I1205 05:03:08.802410 17222 layer_factory.hpp:77] Creating layer relu5_2
I1205 05:03:08.802419 17222 net.cpp:84] Creating Layer relu5_2
I1205 05:03:08.802423 17222 net.cpp:406] relu5_2 <- conv5_2
I1205 05:03:08.802428 17222 net.cpp:367] relu5_2 -> conv5_2 (in-place)
I1205 05:03:08.802987 17222 net.cpp:122] Setting up relu5_2
I1205 05:03:08.803009 17222 net.cpp:129] Top shape: 1 512 34 44 (765952)
I1205 05:03:08.803012 17222 net.cpp:137] Memory required for data: 849542592
I1205 05:03:08.803015 17222 layer_factory.hpp:77] Creating layer conv5_3
I1205 05:03:08.803040 17222 net.cpp:84] Creating Layer conv5_3
I1205 05:03:08.803045 17222 net.cpp:406] conv5_3 <- conv5_2
I1205 05:03:08.803051 17222 net.cpp:380] conv5_3 -> conv5_3
I1205 05:03:08.810569 17222 net.cpp:122] Setting up conv5_3
I1205 05:03:08.810596 17222 net.cpp:129] Top shape: 1 512 34 44 (765952)
I1205 05:03:08.810600 17222 net.cpp:137] Memory required for data: 852606400
I1205 05:03:08.810607 17222 layer_factory.hpp:77] Creating layer relu5_3
I1205 05:03:08.810613 17222 net.cpp:84] Creating Layer relu5_3
I1205 05:03:08.810617 17222 net.cpp:406] relu5_3 <- conv5_3
I1205 05:03:08.810621 17222 net.cpp:367] relu5_3 -> conv5_3 (in-place)
I1205 05:03:08.811444 17222 net.cpp:122] Setting up relu5_3
I1205 05:03:08.811471 17222 net.cpp:129] Top shape: 1 512 34 44 (765952)
I1205 05:03:08.811475 17222 net.cpp:137] Memory required for data: 855670208
I1205 05:03:08.811478 17222 layer_factory.hpp:77] Creating layer pool5
I1205 05:03:08.811491 17222 net.cpp:84] Creating Layer pool5
I1205 05:03:08.811496 17222 net.cpp:406] pool5 <- conv5_3
I1205 05:03:08.811501 17222 net.cpp:380] pool5 -> pool5
I1205 05:03:08.811552 17222 net.cpp:122] Setting up pool5
I1205 05:03:08.811570 17222 net.cpp:129] Top shape: 1 512 17 22 (191488)
I1205 05:03:08.811573 17222 net.cpp:137] Memory required for data: 856436160
I1205 05:03:08.811576 17222 layer_factory.hpp:77] Creating layer fc6
I1205 05:03:08.811585 17222 net.cpp:84] Creating Layer fc6
I1205 05:03:08.811589 17222 net.cpp:406] fc6 <- pool5
I1205 05:03:08.811594 17222 net.cpp:380] fc6 -> fc6
I1205 05:03:09.114562 17222 net.cpp:122] Setting up fc6
I1205 05:03:09.114596 17222 net.cpp:129] Top shape: 1 4096 11 16 (720896)
I1205 05:03:09.114601 17222 net.cpp:137] Memory required for data: 859319744
I1205 05:03:09.114609 17222 layer_factory.hpp:77] Creating layer relu6
I1205 05:03:09.114622 17222 net.cpp:84] Creating Layer relu6
I1205 05:03:09.114627 17222 net.cpp:406] relu6 <- fc6
I1205 05:03:09.114643 17222 net.cpp:367] relu6 -> fc6 (in-place)
I1205 05:03:09.115198 17222 net.cpp:122] Setting up relu6
I1205 05:03:09.115221 17222 net.cpp:129] Top shape: 1 4096 11 16 (720896)
I1205 05:03:09.115224 17222 net.cpp:137] Memory required for data: 862203328
I1205 05:03:09.115227 17222 layer_factory.hpp:77] Creating layer drop6
I1205 05:03:09.115250 17222 net.cpp:84] Creating Layer drop6
I1205 05:03:09.115254 17222 net.cpp:406] drop6 <- fc6
I1205 05:03:09.115258 17222 net.cpp:367] drop6 -> fc6 (in-place)
I1205 05:03:09.115308 17222 net.cpp:122] Setting up drop6
I1205 05:03:09.115315 17222 net.cpp:129] Top shape: 1 4096 11 16 (720896)
I1205 05:03:09.115319 17222 net.cpp:137] Memory required for data: 865086912
I1205 05:03:09.115321 17222 layer_factory.hpp:77] Creating layer fc7
I1205 05:03:09.115332 17222 net.cpp:84] Creating Layer fc7
I1205 05:03:09.115334 17222 net.cpp:406] fc7 <- fc6
I1205 05:03:09.115339 17222 net.cpp:380] fc7 -> fc7
I1205 05:03:09.165922 17222 net.cpp:122] Setting up fc7
I1205 05:03:09.165966 17222 net.cpp:129] Top shape: 1 4096 11 16 (720896)
I1205 05:03:09.165971 17222 net.cpp:137] Memory required for data: 867970496
I1205 05:03:09.165980 17222 layer_factory.hpp:77] Creating layer relu7
I1205 05:03:09.165992 17222 net.cpp:84] Creating Layer relu7
I1205 05:03:09.165995 17222 net.cpp:406] relu7 <- fc7
I1205 05:03:09.166004 17222 net.cpp:367] relu7 -> fc7 (in-place)
I1205 05:03:09.167002 17222 net.cpp:122] Setting up relu7
I1205 05:03:09.167029 17222 net.cpp:129] Top shape: 1 4096 11 16 (720896)
I1205 05:03:09.167033 17222 net.cpp:137] Memory required for data: 870854080
I1205 05:03:09.167037 17222 layer_factory.hpp:77] Creating layer drop7
I1205 05:03:09.167044 17222 net.cpp:84] Creating Layer drop7
I1205 05:03:09.167048 17222 net.cpp:406] drop7 <- fc7
I1205 05:03:09.167055 17222 net.cpp:367] drop7 -> fc7 (in-place)
I1205 05:03:09.167109 17222 net.cpp:122] Setting up drop7
I1205 05:03:09.167161 17222 net.cpp:129] Top shape: 1 4096 11 16 (720896)
I1205 05:03:09.167166 17222 net.cpp:137] Memory required for data: 873737664
I1205 05:03:09.167170 17222 layer_factory.hpp:77] Creating layer score_fr
I1205 05:03:09.167178 17222 net.cpp:84] Creating Layer score_fr
I1205 05:03:09.167181 17222 net.cpp:406] score_fr <- fc7
I1205 05:03:09.167188 17222 net.cpp:380] score_fr -> score_fr
I1205 05:03:09.169543 17222 net.cpp:122] Setting up score_fr
I1205 05:03:09.169570 17222 net.cpp:129] Top shape: 1 21 11 16 (3696)
I1205 05:03:09.169574 17222 net.cpp:137] Memory required for data: 873752448
I1205 05:03:09.169581 17222 layer_factory.hpp:77] Creating layer upscore
I1205 05:03:09.169592 17222 net.cpp:84] Creating Layer upscore
I1205 05:03:09.169597 17222 net.cpp:406] upscore <- score_fr
I1205 05:03:09.169602 17222 net.cpp:380] upscore -> upscore
I1205 05:03:09.174046 17222 net.cpp:122] Setting up upscore
I1205 05:03:09.174074 17222 net.cpp:129] Top shape: 1 21 384 544 (4386816)
I1205 05:03:09.174078 17222 net.cpp:137] Memory required for data: 891299712
I1205 05:03:09.174093 17222 layer_factory.hpp:77] Creating layer score
I1205 05:03:09.174116 17222 net.cpp:84] Creating Layer score
I1205 05:03:09.174120 17222 net.cpp:406] score <- upscore
I1205 05:03:09.174125 17222 net.cpp:406] score <- data_data_0_split_1
I1205 05:03:09.174130 17222 net.cpp:380] score -> score
I1205 05:03:09.174178 17222 net.cpp:122] Setting up score
I1205 05:03:09.174196 17222 net.cpp:129] Top shape: 1 21 334 500 (3507000)
I1205 05:03:09.174199 17222 net.cpp:137] Memory required for data: 905327712
I1205 05:03:09.174202 17222 layer_factory.hpp:77] Creating layer loss
I1205 05:03:09.174211 17222 net.cpp:84] Creating Layer loss
I1205 05:03:09.174214 17222 net.cpp:406] loss <- score
I1205 05:03:09.174218 17222 net.cpp:406] loss <- label
I1205 05:03:09.174224 17222 net.cpp:380] loss -> loss
I1205 05:03:09.174233 17222 layer_factory.hpp:77] Creating layer loss
…
I1205 05:03:09.182976 17222 net.cpp:255] Network initialization done.
I1205 05:03:09.183790 17222 solver.cpp:172] Creating test net (#0) specified by test_net file: val.prototxt
I1205 05:03:09.184051 17222 net.cpp:51] Initializing net from parameters: 
state {
  phase: TEST
}
layer {
  name: "data"
  type: "Python"
  top: "data"
  top: "label"
  python_param {
    module: "data_layer"
    layer: "ValidDataLayer"
    param_str: "{\'mode\': \'val\', \'mean\': (104.00699, 116.66877, 122.67892), \'seed\': 1337, \'data_dir\': \'/jet/prs/workspace/VOCdevkit/VOC2012\'}"
  }
}
layer {
  name: "conv1_1"
  type: "Convolution"
  bottom: "data"
  top: "conv1_1"
  param {
    lr_mult: 1
    decay_mult: 1
  }
  param {
    lr_mult: 2
    decay_mult: 0
  }
  convolution_param {
    num_output: 64
    pad: 100
    kernel_size: 3
    stride: 1
  }
}
layer {
  name: "relu1_1"
  type: "ReLU"
  bottom: "conv1_1"
  top: "conv1_1"
}
layer {
  name: "conv1_2"
  type: "Convolution"
  bottom: "conv1_1"
  top: "conv1_2"
  param {
    lr_mult: 1
    decay_mult: 1
  }
  param {
    lr_mult: 2
    decay_mult: 0
  }
  convolution_param {
    num_output: 64
    pad: 1
    kernel_size: 3
    stride: 1
  }
}
layer {
  name: "relu1_2"
  type: "ReLU"
  bottom: "conv1_2"
  top: "conv1_2"
}
layer {
  name: "pool1"
  type: "Pooling"
  bottom: "conv1_2"
  top: "pool1"
  pooling_param {
    pool: MAX
    kernel_size: 2
    stride: 2
  }
}
layer {
  name: "conv2_1"
  type: "Convolution"
  bottom: "pool1"
  top: "conv2_1"
  param {
    lr_mult: 1
    decay_mult: 1
  }
  param {
    lr_mult: 2
    decay_mult: 0
  }
  convolution_param {
    num_output: 128
    pad: 1
    kernel_size: 3
    stride: 1
  }
}
layer {
  name: "relu2_1"
  type: "ReLU"
  bottom: "conv2_1"
  top: "conv2_1"
}
layer {
  name: "conv2_2"
  type: "Convolution"
  bottom: "conv2_1"
  top: "conv2_2"
  param {
    lr_mult: 1
    decay_mult: 1
  }
  param {
    lr_mult: 2
    decay_mult: 0
  }
  convolution_param {
    num_output: 128
    pad: 1
    kernel_size: 3
    stride: 1
  }
}
layer {
  name: "relu2_2"
  type: "ReLU"
  bottom: "conv2_2"
  top: "conv2_2"
}
layer {
  name: "pool2"
  type: "Pooling"
  bottom: "conv2_2"
  top: "pool2"
  pooling_param {
    pool: MAX
    kernel_size: 2
    stride: 2
  }
}
layer {
  name: "conv3_1"
  type: "Convolution"
  bottom: "pool2"
  top: "conv3_1"
  param {
    lr_mult: 1
    decay_mult: 1
  }
  param {
    lr_mult: 2
    decay_mult: 0
  }
  convolution_param {
    num_output: 256
    pad: 1
    kernel_size: 3
    stride: 1
  }
}
layer {
  name: "relu3_1"
  type: "ReLU"
  bottom: "conv3_1"
  top: "conv3_1"
}
layer {
  name: "conv3_2"
  type: "Convolution"
  bottom: "conv3_1"
  top: "conv3_2"
  param {
    lr_mult: 1
    decay_mult: 1
  }
  param {
    lr_mult: 2
    decay_mult: 0
  }
  convolution_param {
    num_output: 256
    pad: 1
    kernel_size: 3
    stride: 1
  }
}
layer {
  name: "relu3_2"
  type: "ReLU"
  bottom: "conv3_2"
  top: "conv3_2"
}
layer {
  name: "conv3_3"
  type: "Convolution"
  bottom: "conv3_2"
  top: "conv3_3"
  param {
    lr_mult: 1
    decay_mult: 1
  }
  param {
    lr_mult: 2
    decay_mult: 0
  }
  convolution_param {
    num_output: 256
    pad: 1
    kernel_size: 3
    stride: 1
  }
}
layer {
  name: "relu3_3"
  type: "ReLU"
  bottom: "conv3_3"
  top: "conv3_3"
}
layer {
  name: "pool3"
  type: "Pooling"
  bottom: "conv3_3"
  top: "pool3"
  pooling_param {
    pool: MAX
    kernel_size: 2
    stride: 2
  }
}
layer {
  name: "conv4_1"
  type: "Convolution"
  bottom: "pool3"
  top: "conv4_1"
  param {
    lr_mult: 1
    decay_mult: 1
  }
  param {
    lr_mult: 2
    decay_mult: 0
  }
  convolution_param {
    num_output: 512
    pad: 1
    kernel_size: 3
    stride: 1
  }
}
layer {
  name: "relu4_1"
  type: "ReLU"
  bottom: "conv4_1"
  top: "conv4_1"
}
layer {
  name: "conv4_2"
  type: "Convolution"
  bottom: "conv4_1"
  top: "conv4_2"
  param {
    lr_mult: 1
    decay_mult: 1
  }
  param {
    lr_mult: 2
    decay_mult: 0
  }
  convolution_param {
    num_output: 512
    pad: 1
    kernel_size: 3
    stride: 1
  }
}
layer {
  name: "relu4_2"
  type: "ReLU"
  bottom: "conv4_2"
  top: "conv4_2"
}
layer {
  name: "conv4_3"
  type: "Convolution"
  bottom: "conv4_2"
  top: "conv4_3"
  param {
    lr_mult: 1
    decay_mult: 1
  }
  param {
    lr_mult: 2
    decay_mult: 0
  }
  convolution_param {
    num_output: 512
    pad: 1
    kernel_size: 3
    stride: 1
  }
}
layer {
  name: "relu4_3"
  type: "ReLU"
  bottom: "conv4_3"
  top: "conv4_3"
}
layer {
  name: "pool4"
  type: "Pooling"
  bottom: "conv4_3"
  top: "pool4"
  pooling_param {
    pool: MAX
    kernel_size: 2
    stride: 2
  }
}
layer {
  name: "conv5_1"
  type: "Convolution"
  bottom: "pool4"
  top: "conv5_1"
  param {
    lr_mult: 1
    decay_mult: 1
  }
  param {
    lr_mult: 2
    decay_mult: 0
  }
  convolution_param {
    num_output: 512
    pad: 1
    kernel_size: 3
    stride: 1
  }
}
layer {
  name: "relu5_1"
  type: "ReLU"
  bottom: "conv5_1"
  top: "conv5_1"
}
layer {
  name: "conv5_2"
  type: "Convolution"
  bottom: "conv5_1"
  top: "conv5_2"
  param {
    lr_mult: 1
    decay_mult: 1
  }
  param {
    lr_mult: 2
    decay_mult: 0
  }
  convolution_param {
    num_output: 512
    pad: 1
    kernel_size: 3
    stride: 1
  }
}
layer {
  name: "relu5_2"
  type: "ReLU"
  bottom: "conv5_2"
  top: "conv5_2"
}
layer {
  name: "conv5_3"
  type: "Convolution"
  bottom: "conv5_2"
  top: "conv5_3"
  param {
    lr_mult: 1
    decay_mult: 1
  }
  param {
    lr_mult: 2
    decay_mult: 0
  }
  convolution_param {
    num_output: 512
    pad: 1
    kernel_size: 3
    stride: 1
  }
}
layer {
  name: "relu5_3"
  type: "ReLU"
  bottom: "conv5_3"
  top: "conv5_3"
}
layer {
  name: "pool5"
  type: "Pooling"
  bottom: "conv5_3"
  top: "pool5"
  pooling_param {
    pool: MAX
    kernel_size: 2
    stride: 2
  }
}
layer {
  name: "fc6"
  type: "Convolution"
  bottom: "pool5"
  top: "fc6"
  param {
    lr_mult: 1
    decay_mult: 1
  }
  param {
    lr_mult: 2
    decay_mult: 0
  }
  convolution_param {
    num_output: 4096
    pad: 0
    kernel_size: 7
    stride: 1
  }
}
layer {
  name: "relu6"
  type: "ReLU"
  bottom: "fc6"
  top: "fc6"
}
layer {
  name: "drop6"
  type: "Dropout"
  bottom: "fc6"
  top: "fc6"
  dropout_param {
    dropout_ratio: 0.5
  }
}
layer {
  name: "fc7"
  type: "Convolution"
  bottom: "fc6"
  top: "fc7"
  param {
    lr_mult: 1
    decay_mult: 1
  }
  param {
    lr_mult: 2
    decay_mult: 0
  }
  convolution_param {
    num_output: 4096
    pad: 0
    kernel_size: 1
    stride: 1
  }
}
layer {
  name: "relu7"
  type: "ReLU"
  bottom: "fc7"
  top: "fc7"
}
layer {
  name: "drop7"
  type: "Dropout"
  bottom: "fc7"
  top: "fc7"
  dropout_param {
    dropout_ratio: 0.5
  }
}
layer {
  name: "score_fr"
  type: "Convolution"
  bottom: "fc7"
  top: "score_fr"
  param {
    lr_mult: 1
    decay_mult: 1
  }
  param {
    lr_mult: 2
    decay_mult: 0
  }
  convolution_param {
    num_output: 21
    pad: 0
    kernel_size: 1
    stride: 1
  }
}
layer {
  name: "upscore"
  type: "Deconvolution"
  bottom: "score_fr"
  top: "upscore"
  param {
    lr_mult: 0
  }
  convolution_param {
    num_output: 21
    bias_term: false
    kernel_size: 64
    stride: 32
  }
}
layer {
  name: "score"
  type: "Crop"
  bottom: "upscore"
  bottom: "data"
  top: "score"
  crop_param {
    axis: 2
    offset: 19
  }
}
layer {
  name: "loss"
  type: "SoftmaxWithLoss"
  bottom: "score"
  bottom: "label"
  top: "loss"
  loss_param {
    ignore_label: 255
    normalize: false
  }
}
I1205 05:03:09.184231 17222 layer_factory.hpp:77] Creating layer data
I1205 05:03:09.184298 17222 net.cpp:84] Creating Layer data
I1205 05:03:09.184305 17222 net.cpp:380] data -> data
I1205 05:03:09.184312 17222 net.cpp:380] data -> label
I1205 05:03:09.194926 17222 net.cpp:122] Setting up data
I1205 05:03:09.194963 17222 net.cpp:129] Top shape: 1 3 366 500 (549000)
I1205 05:03:09.194969 17222 net.cpp:129] Top shape: 1 1 366 500 (183000)
I1205 05:03:09.194972 17222 net.cpp:137] Memory required for data: 2928000
I1205 05:03:09.194975 17222 layer_factory.hpp:77] Creating layer data_data_0_split
I1205 05:03:09.194984 17222 net.cpp:84] Creating Layer data_data_0_split
I1205 05:03:09.194988 17222 net.cpp:406] data_data_0_split <- data
I1205 05:03:09.194993 17222 net.cpp:380] data_data_0_split -> data_data_0_split_0
I1205 05:03:09.194999 17222 net.cpp:380] data_data_0_split -> data_data_0_split_1
I1205 05:03:09.195040 17222 net.cpp:122] Setting up data_data_0_split
I1205 05:03:09.195057 17222 net.cpp:129] Top shape: 1 3 366 500 (549000)
I1205 05:03:09.195062 17222 net.cpp:129] Top shape: 1 3 366 500 (549000)
I1205 05:03:09.195065 17222 net.cpp:137] Memory required for data: 7320000
I1205 05:03:09.195067 17222 layer_factory.hpp:77] Creating layer conv1_1
I1205 05:03:09.195076 17222 net.cpp:84] Creating Layer conv1_1
I1205 05:03:09.195080 17222 net.cpp:406] conv1_1 <- data_data_0_split_0
I1205 05:03:09.195085 17222 net.cpp:380] conv1_1 -> conv1_1
I1205 05:03:09.198983 17222 net.cpp:122] Setting up conv1_1
I1205 05:03:09.199028 17222 net.cpp:129] Top shape: 1 64 564 698 (25195008)
I1205 05:03:09.199033 17222 net.cpp:137] Memory required for data: 108100032
I1205 05:03:09.199074 17222 layer_factory.hpp:77] Creating layer relu1_1
I1205 05:03:09.199081 17222 net.cpp:84] Creating Layer relu1_1
I1205 05:03:09.199084 17222 net.cpp:406] relu1_1 <- conv1_1
I1205 05:03:09.199090 17222 net.cpp:367] relu1_1 -> conv1_1 (in-place)
I1205 05:03:09.199517 17222 net.cpp:122] Setting up relu1_1
I1205 05:03:09.199542 17222 net.cpp:129] Top shape: 1 64 564 698 (25195008)
I1205 05:03:09.199545 17222 net.cpp:137] Memory required for data: 208880064
I1205 05:03:09.199548 17222 layer_factory.hpp:77] Creating layer conv1_2
I1205 05:03:09.199558 17222 net.cpp:84] Creating Layer conv1_2
I1205 05:03:09.199560 17222 net.cpp:406] conv1_2 <- conv1_1
I1205 05:03:09.199566 17222 net.cpp:380] conv1_2 -> conv1_2
I1205 05:03:09.203122 17222 net.cpp:122] Setting up conv1_2
I1205 05:03:09.203151 17222 net.cpp:129] Top shape: 1 64 564 698 (25195008)
I1205 05:03:09.203155 17222 net.cpp:137] Memory required for data: 309660096
I1205 05:03:09.203164 17222 layer_factory.hpp:77] Creating layer relu1_2
I1205 05:03:09.203171 17222 net.cpp:84] Creating Layer relu1_2
I1205 05:03:09.203174 17222 net.cpp:406] relu1_2 <- conv1_2
I1205 05:03:09.203196 17222 net.cpp:367] relu1_2 -> conv1_2 (in-place)
I1205 05:03:09.203615 17222 net.cpp:122] Setting up relu1_2
I1205 05:03:09.203639 17222 net.cpp:129] Top shape: 1 64 564 698 (25195008)
I1205 05:03:09.203644 17222 net.cpp:137] Memory required for data: 410440128
I1205 05:03:09.203646 17222 layer_factory.hpp:77] Creating layer pool1
I1205 05:03:09.203652 17222 net.cpp:84] Creating Layer pool1
I1205 05:03:09.203656 17222 net.cpp:406] pool1 <- conv1_2
I1205 05:03:09.203661 17222 net.cpp:380] pool1 -> pool1
I1205 05:03:09.203711 17222 net.cpp:122] Setting up pool1
I1205 05:03:09.203728 17222 net.cpp:129] Top shape: 1 64 282 349 (6298752)
I1205 05:03:09.203732 17222 net.cpp:137] Memory required for data: 435635136
I1205 05:03:09.203735 17222 layer_factory.hpp:77] Creating layer conv2_1
I1205 05:03:09.203742 17222 net.cpp:84] Creating Layer conv2_1
I1205 05:03:09.203745 17222 net.cpp:406] conv2_1 <- pool1
I1205 05:03:09.203750 17222 net.cpp:380] conv2_1 -> conv2_1
I1205 05:03:09.206382 17222 net.cpp:122] Setting up conv2_1
I1205 05:03:09.206408 17222 net.cpp:129] Top shape: 1 128 282 349 (12597504)
I1205 05:03:09.206411 17222 net.cpp:137] Memory required for data: 486025152
I1205 05:03:09.206423 17222 layer_factory.hpp:77] Creating layer relu2_1
I1205 05:03:09.206429 17222 net.cpp:84] Creating Layer relu2_1
I1205 05:03:09.206434 17222 net.cpp:406] relu2_1 <- conv2_1
I1205 05:03:09.206439 17222 net.cpp:367] relu2_1 -> conv2_1 (in-place)
I1205 05:03:09.207048 17222 net.cpp:122] Setting up relu2_1
I1205 05:03:09.207072 17222 net.cpp:129] Top shape: 1 128 282 349 (12597504)
I1205 05:03:09.207078 17222 net.cpp:137] Memory required for data: 536415168
I1205 05:03:09.207082 17222 layer_factory.hpp:77] Creating layer conv2_2
I1205 05:03:09.207089 17222 net.cpp:84] Creating Layer conv2_2
I1205 05:03:09.207093 17222 net.cpp:406] conv2_2 <- conv2_1
I1205 05:03:09.207100 17222 net.cpp:380] conv2_2 -> conv2_2
I1205 05:03:09.209947 17222 net.cpp:122] Setting up conv2_2
I1205 05:03:09.209976 17222 net.cpp:129] Top shape: 1 128 282 349 (12597504)
I1205 05:03:09.209980 17222 net.cpp:137] Memory required for data: 586805184
I1205 05:03:09.209986 17222 layer_factory.hpp:77] Creating layer relu2_2
I1205 05:03:09.209993 17222 net.cpp:84] Creating Layer relu2_2
I1205 05:03:09.209996 17222 net.cpp:406] relu2_2 <- conv2_2
I1205 05:03:09.210001 17222 net.cpp:367] relu2_2 -> conv2_2 (in-place)
I1205 05:03:09.210896 17222 net.cpp:122] Setting up relu2_2
I1205 05:03:09.210922 17222 net.cpp:129] Top shape: 1 128 282 349 (12597504)
I1205 05:03:09.210927 17222 net.cpp:137] Memory required for data: 637195200
I1205 05:03:09.210929 17222 layer_factory.hpp:77] Creating layer pool2
I1205 05:03:09.210935 17222 net.cpp:84] Creating Layer pool2
I1205 05:03:09.210939 17222 net.cpp:406] pool2 <- conv2_2
I1205 05:03:09.210944 17222 net.cpp:380] pool2 -> pool2
I1205 05:03:09.211045 17222 net.cpp:122] Setting up pool2
I1205 05:03:09.211081 17222 net.cpp:129] Top shape: 1 128 141 175 (3158400)
I1205 05:03:09.211083 17222 net.cpp:137] Memory required for data: 649828800
I1205 05:03:09.211086 17222 layer_factory.hpp:77] Creating layer conv3_1
I1205 05:03:09.211096 17222 net.cpp:84] Creating Layer conv3_1
I1205 05:03:09.211099 17222 net.cpp:406] conv3_1 <- pool2
I1205 05:03:09.211107 17222 net.cpp:380] conv3_1 -> conv3_1
I1205 05:03:09.215360 17222 net.cpp:122] Setting up conv3_1
I1205 05:03:09.215387 17222 net.cpp:129] Top shape: 1 256 141 175 (6316800)
I1205 05:03:09.215391 17222 net.cpp:137] Memory required for data: 675096000
I1205 05:03:09.215401 17222 layer_factory.hpp:77] Creating layer relu3_1
I1205 05:03:09.215409 17222 net.cpp:84] Creating Layer relu3_1
I1205 05:03:09.215414 17222 net.cpp:406] relu3_1 <- conv3_1
I1205 05:03:09.215417 17222 net.cpp:367] relu3_1 -> conv3_1 (in-place)
I1205 05:03:09.215986 17222 net.cpp:122] Setting up relu3_1
I1205 05:03:09.216011 17222 net.cpp:129] Top shape: 1 256 141 175 (6316800)
I1205 05:03:09.216014 17222 net.cpp:137] Memory required for data: 700363200
I1205 05:03:09.216017 17222 layer_factory.hpp:77] Creating layer conv3_2
I1205 05:03:09.216027 17222 net.cpp:84] Creating Layer conv3_2
I1205 05:03:09.216032 17222 net.cpp:406] conv3_2 <- conv3_1
I1205 05:03:09.216039 17222 net.cpp:380] conv3_2 -> conv3_2
I1205 05:03:09.220479 17222 net.cpp:122] Setting up conv3_2
I1205 05:03:09.220506 17222 net.cpp:129] Top shape: 1 256 141 175 (6316800)
I1205 05:03:09.220510 17222 net.cpp:137] Memory required for data: 725630400
I1205 05:03:09.220517 17222 layer_factory.hpp:77] Creating layer relu3_2
I1205 05:03:09.220525 17222 net.cpp:84] Creating Layer relu3_2
I1205 05:03:09.220530 17222 net.cpp:406] relu3_2 <- conv3_2
I1205 05:03:09.220535 17222 net.cpp:367] relu3_2 -> conv3_2 (in-place)
I1205 05:03:09.221185 17222 net.cpp:122] Setting up relu3_2
I1205 05:03:09.221211 17222 net.cpp:129] Top shape: 1 256 141 175 (6316800)
I1205 05:03:09.221215 17222 net.cpp:137] Memory required for data: 750897600
I1205 05:03:09.221220 17222 layer_factory.hpp:77] Creating layer conv3_3
I1205 05:03:09.221230 17222 net.cpp:84] Creating Layer conv3_3
I1205 05:03:09.221235 17222 net.cpp:406] conv3_3 <- conv3_2
I1205 05:03:09.221242 17222 net.cpp:380] conv3_3 -> conv3_3
I1205 05:03:09.225579 17222 net.cpp:122] Setting up conv3_3
I1205 05:03:09.225636 17222 net.cpp:129] Top shape: 1 256 141 175 (6316800)
I1205 05:03:09.225641 17222 net.cpp:137] Memory required for data: 776164800
I1205 05:03:09.225648 17222 layer_factory.hpp:77] Creating layer relu3_3
I1205 05:03:09.225654 17222 net.cpp:84] Creating Layer relu3_3
I1205 05:03:09.225658 17222 net.cpp:406] relu3_3 <- conv3_3
I1205 05:03:09.225663 17222 net.cpp:367] relu3_3 -> conv3_3 (in-place)
I1205 05:03:09.226649 17222 net.cpp:122] Setting up relu3_3
I1205 05:03:09.226671 17222 net.cpp:129] Top shape: 1 256 141 175 (6316800)
I1205 05:03:09.226675 17222 net.cpp:137] Memory required for data: 801432000
I1205 05:03:09.226678 17222 layer_factory.hpp:77] Creating layer pool3
I1205 05:03:09.226687 17222 net.cpp:84] Creating Layer pool3
I1205 05:03:09.226691 17222 net.cpp:406] pool3 <- conv3_3
I1205 05:03:09.226696 17222 net.cpp:380] pool3 -> pool3
I1205 05:03:09.226755 17222 net.cpp:122] Setting up pool3
I1205 05:03:09.226773 17222 net.cpp:129] Top shape: 1 256 71 88 (1599488)
I1205 05:03:09.226776 17222 net.cpp:137] Memory required for data: 807829952
I1205 05:03:09.226779 17222 layer_factory.hpp:77] Creating layer conv4_1
I1205 05:03:09.226789 17222 net.cpp:84] Creating Layer conv4_1
I1205 05:03:09.226792 17222 net.cpp:406] conv4_1 <- pool3
I1205 05:03:09.226799 17222 net.cpp:380] conv4_1 -> conv4_1
I1205 05:03:09.232380 17222 net.cpp:122] Setting up conv4_1
I1205 05:03:09.232409 17222 net.cpp:129] Top shape: 1 512 71 88 (3198976)
I1205 05:03:09.232414 17222 net.cpp:137] Memory required for data: 820625856
I1205 05:03:09.232420 17222 layer_factory.hpp:77] Creating layer relu4_1
I1205 05:03:09.232426 17222 net.cpp:84] Creating Layer relu4_1
I1205 05:03:09.232430 17222 net.cpp:406] relu4_1 <- conv4_1
I1205 05:03:09.232435 17222 net.cpp:367] relu4_1 -> conv4_1 (in-place)
I1205 05:03:09.232967 17222 net.cpp:122] Setting up relu4_1
I1205 05:03:09.232990 17222 net.cpp:129] Top shape: 1 512 71 88 (3198976)
I1205 05:03:09.232995 17222 net.cpp:137] Memory required for data: 833421760
I1205 05:03:09.232998 17222 layer_factory.hpp:77] Creating layer conv4_2
I1205 05:03:09.233021 17222 net.cpp:84] Creating Layer conv4_2
I1205 05:03:09.233027 17222 net.cpp:406] conv4_2 <- conv4_1
I1205 05:03:09.233036 17222 net.cpp:380] conv4_2 -> conv4_2
I1205 05:03:09.240770 17222 net.cpp:122] Setting up conv4_2
I1205 05:03:09.240803 17222 net.cpp:129] Top shape: 1 512 71 88 (3198976)
I1205 05:03:09.240806 17222 net.cpp:137] Memory required for data: 846217664
I1205 05:03:09.240816 17222 layer_factory.hpp:77] Creating layer relu4_2
I1205 05:03:09.240824 17222 net.cpp:84] Creating Layer relu4_2
I1205 05:03:09.240828 17222 net.cpp:406] relu4_2 <- conv4_2
I1205 05:03:09.240833 17222 net.cpp:367] relu4_2 -> conv4_2 (in-place)
I1205 05:03:09.241400 17222 net.cpp:122] Setting up relu4_2
I1205 05:03:09.241422 17222 net.cpp:129] Top shape: 1 512 71 88 (3198976)
I1205 05:03:09.241426 17222 net.cpp:137] Memory required for data: 859013568
I1205 05:03:09.241430 17222 layer_factory.hpp:77] Creating layer conv4_3
I1205 05:03:09.241438 17222 net.cpp:84] Creating Layer conv4_3
I1205 05:03:09.241442 17222 net.cpp:406] conv4_3 <- conv4_2
I1205 05:03:09.241447 17222 net.cpp:380] conv4_3 -> conv4_3
I1205 05:03:09.248977 17222 net.cpp:122] Setting up conv4_3
I1205 05:03:09.249008 17222 net.cpp:129] Top shape: 1 512 71 88 (3198976)
I1205 05:03:09.249012 17222 net.cpp:137] Memory required for data: 871809472
I1205 05:03:09.249018 17222 layer_factory.hpp:77] Creating layer relu4_3
I1205 05:03:09.249025 17222 net.cpp:84] Creating Layer relu4_3
I1205 05:03:09.249028 17222 net.cpp:406] relu4_3 <- conv4_3
I1205 05:03:09.249033 17222 net.cpp:367] relu4_3 -> conv4_3 (in-place)
I1205 05:03:09.250003 17222 net.cpp:122] Setting up relu4_3
I1205 05:03:09.250031 17222 net.cpp:129] Top shape: 1 512 71 88 (3198976)
I1205 05:03:09.250036 17222 net.cpp:137] Memory required for data: 884605376
I1205 05:03:09.250039 17222 layer_factory.hpp:77] Creating layer pool4
I1205 05:03:09.250046 17222 net.cpp:84] Creating Layer pool4
I1205 05:03:09.250049 17222 net.cpp:406] pool4 <- conv4_3
I1205 05:03:09.250056 17222 net.cpp:380] pool4 -> pool4
I1205 05:03:09.250113 17222 net.cpp:122] Setting up pool4
I1205 05:03:09.250131 17222 net.cpp:129] Top shape: 1 512 36 44 (811008)
I1205 05:03:09.250134 17222 net.cpp:137] Memory required for data: 887849408
I1205 05:03:09.250138 17222 layer_factory.hpp:77] Creating layer conv5_1
I1205 05:03:09.250147 17222 net.cpp:84] Creating Layer conv5_1
I1205 05:03:09.250167 17222 net.cpp:406] conv5_1 <- pool4
I1205 05:03:09.250174 17222 net.cpp:380] conv5_1 -> conv5_1
I1205 05:03:09.257882 17222 net.cpp:122] Setting up conv5_1
I1205 05:03:09.257910 17222 net.cpp:129] Top shape: 1 512 36 44 (811008)
I1205 05:03:09.257915 17222 net.cpp:137] Memory required for data: 891093440
I1205 05:03:09.257920 17222 layer_factory.hpp:77] Creating layer relu5_1
I1205 05:03:09.257930 17222 net.cpp:84] Creating Layer relu5_1
I1205 05:03:09.257933 17222 net.cpp:406] relu5_1 <- conv5_1
I1205 05:03:09.257937 17222 net.cpp:367] relu5_1 -> conv5_1 (in-place)
I1205 05:03:09.258541 17222 net.cpp:122] Setting up relu5_1
I1205 05:03:09.258561 17222 net.cpp:129] Top shape: 1 512 36 44 (811008)
I1205 05:03:09.258564 17222 net.cpp:137] Memory required for data: 894337472
I1205 05:03:09.258569 17222 layer_factory.hpp:77] Creating layer conv5_2
I1205 05:03:09.258579 17222 net.cpp:84] Creating Layer conv5_2
I1205 05:03:09.258582 17222 net.cpp:406] conv5_2 <- conv5_1
I1205 05:03:09.258589 17222 net.cpp:380] conv5_2 -> conv5_2
I1205 05:03:09.266129 17222 net.cpp:122] Setting up conv5_2
I1205 05:03:09.266157 17222 net.cpp:129] Top shape: 1 512 36 44 (811008)
I1205 05:03:09.266161 17222 net.cpp:137] Memory required for data: 897581504
I1205 05:03:09.266168 17222 layer_factory.hpp:77] Creating layer relu5_2
I1205 05:03:09.266176 17222 net.cpp:84] Creating Layer relu5_2
I1205 05:03:09.266181 17222 net.cpp:406] relu5_2 <- conv5_2
I1205 05:03:09.266185 17222 net.cpp:367] relu5_2 -> conv5_2 (in-place)
I1205 05:03:09.266721 17222 net.cpp:122] Setting up relu5_2
I1205 05:03:09.266743 17222 net.cpp:129] Top shape: 1 512 36 44 (811008)
I1205 05:03:09.266747 17222 net.cpp:137] Memory required for data: 900825536
I1205 05:03:09.266750 17222 layer_factory.hpp:77] Creating layer conv5_3
I1205 05:03:09.266760 17222 net.cpp:84] Creating Layer conv5_3
I1205 05:03:09.266763 17222 net.cpp:406] conv5_3 <- conv5_2
I1205 05:03:09.266769 17222 net.cpp:380] conv5_3 -> conv5_3
I1205 05:03:09.274580 17222 net.cpp:122] Setting up conv5_3
I1205 05:03:09.274608 17222 net.cpp:129] Top shape: 1 512 36 44 (811008)
I1205 05:03:09.274612 17222 net.cpp:137] Memory required for data: 904069568
I1205 05:03:09.274618 17222 layer_factory.hpp:77] Creating layer relu5_3
I1205 05:03:09.274626 17222 net.cpp:84] Creating Layer relu5_3
I1205 05:03:09.274629 17222 net.cpp:406] relu5_3 <- conv5_3
I1205 05:03:09.274634 17222 net.cpp:367] relu5_3 -> conv5_3 (in-place)
I1205 05:03:09.275178 17222 net.cpp:122] Setting up relu5_3
I1205 05:03:09.275202 17222 net.cpp:129] Top shape: 1 512 36 44 (811008)
I1205 05:03:09.275205 17222 net.cpp:137] Memory required for data: 907313600
I1205 05:03:09.275209 17222 layer_factory.hpp:77] Creating layer pool5
I1205 05:03:09.275221 17222 net.cpp:84] Creating Layer pool5
I1205 05:03:09.275224 17222 net.cpp:406] pool5 <- conv5_3
I1205 05:03:09.275230 17222 net.cpp:380] pool5 -> pool5
I1205 05:03:09.275321 17222 net.cpp:122] Setting up pool5
I1205 05:03:09.275338 17222 net.cpp:129] Top shape: 1 512 18 22 (202752)
I1205 05:03:09.275372 17222 net.cpp:137] Memory required for data: 908124608
I1205 05:03:09.275377 17222 layer_factory.hpp:77] Creating layer fc6
I1205 05:03:09.275401 17222 net.cpp:84] Creating Layer fc6
I1205 05:03:09.275410 17222 net.cpp:406] fc6 <- pool5
I1205 05:03:09.275416 17222 net.cpp:380] fc6 -> fc6
I1205 05:03:09.573989 17222 net.cpp:122] Setting up fc6
I1205 05:03:09.574033 17222 net.cpp:129] Top shape: 1 4096 12 16 (786432)
I1205 05:03:09.574038 17222 net.cpp:137] Memory required for data: 911270336
I1205 05:03:09.574045 17222 layer_factory.hpp:77] Creating layer relu6
I1205 05:03:09.574055 17222 net.cpp:84] Creating Layer relu6
I1205 05:03:09.574059 17222 net.cpp:406] relu6 <- fc6
I1205 05:03:09.574066 17222 net.cpp:367] relu6 -> fc6 (in-place)
I1205 05:03:09.575707 17222 net.cpp:122] Setting up relu6
I1205 05:03:09.575733 17222 net.cpp:129] Top shape: 1 4096 12 16 (786432)
I1205 05:03:09.575737 17222 net.cpp:137] Memory required for data: 914416064
I1205 05:03:09.575740 17222 layer_factory.hpp:77] Creating layer drop6
I1205 05:03:09.575747 17222 net.cpp:84] Creating Layer drop6
I1205 05:03:09.575750 17222 net.cpp:406] drop6 <- fc6
I1205 05:03:09.575754 17222 net.cpp:367] drop6 -> fc6 (in-place)
I1205 05:03:09.575796 17222 net.cpp:122] Setting up drop6
I1205 05:03:09.575829 17222 net.cpp:129] Top shape: 1 4096 12 16 (786432)
I1205 05:03:09.575831 17222 net.cpp:137] Memory required for data: 917561792
I1205 05:03:09.575834 17222 layer_factory.hpp:77] Creating layer fc7
I1205 05:03:09.575867 17222 net.cpp:84] Creating Layer fc7
I1205 05:03:09.575881 17222 net.cpp:406] fc7 <- fc6
I1205 05:03:09.575888 17222 net.cpp:380] fc7 -> fc7
I1205 05:03:09.625624 17222 net.cpp:122] Setting up fc7
I1205 05:03:09.625686 17222 net.cpp:129] Top shape: 1 4096 12 16 (786432)
I1205 05:03:09.625690 17222 net.cpp:137] Memory required for data: 920707520
I1205 05:03:09.625715 17222 layer_factory.hpp:77] Creating layer relu7
I1205 05:03:09.625743 17222 net.cpp:84] Creating Layer relu7
I1205 05:03:09.625748 17222 net.cpp:406] relu7 <- fc7
I1205 05:03:09.625754 17222 net.cpp:367] relu7 -> fc7 (in-place)
I1205 05:03:09.626425 17222 net.cpp:122] Setting up relu7
I1205 05:03:09.626446 17222 net.cpp:129] Top shape: 1 4096 12 16 (786432)
I1205 05:03:09.626466 17222 net.cpp:137] Memory required for data: 923853248
I1205 05:03:09.626469 17222 layer_factory.hpp:77] Creating layer drop7
I1205 05:03:09.626493 17222 net.cpp:84] Creating Layer drop7
I1205 05:03:09.626497 17222 net.cpp:406] drop7 <- fc7
I1205 05:03:09.626502 17222 net.cpp:367] drop7 -> fc7 (in-place)
I1205 05:03:09.626606 17222 net.cpp:122] Setting up drop7
I1205 05:03:09.626632 17222 net.cpp:129] Top shape: 1 4096 12 16 (786432)
I1205 05:03:09.626636 17222 net.cpp:137] Memory required for data: 926998976
I1205 05:03:09.626639 17222 layer_factory.hpp:77] Creating layer score_fr
I1205 05:03:09.626667 17222 net.cpp:84] Creating Layer score_fr
I1205 05:03:09.626669 17222 net.cpp:406] score_fr <- fc7
I1205 05:03:09.626675 17222 net.cpp:380] score_fr -> score_fr
I1205 05:03:09.629127 17222 net.cpp:122] Setting up score_fr
I1205 05:03:09.629155 17222 net.cpp:129] Top shape: 1 21 12 16 (4032)
I1205 05:03:09.629159 17222 net.cpp:137] Memory required for data: 927015104
I1205 05:03:09.629165 17222 layer_factory.hpp:77] Creating layer upscore
I1205 05:03:09.629176 17222 net.cpp:84] Creating Layer upscore
I1205 05:03:09.629180 17222 net.cpp:406] upscore <- score_fr
I1205 05:03:09.629185 17222 net.cpp:380] upscore -> upscore
I1205 05:03:09.633436 17222 net.cpp:122] Setting up upscore
I1205 05:03:09.633462 17222 net.cpp:129] Top shape: 1 21 416 544 (4752384)
I1205 05:03:09.633466 17222 net.cpp:137] Memory required for data: 946024640
I1205 05:03:09.633481 17222 layer_factory.hpp:77] Creating layer score
I1205 05:03:09.633488 17222 net.cpp:84] Creating Layer score
I1205 05:03:09.633492 17222 net.cpp:406] score <- upscore
I1205 05:03:09.633496 17222 net.cpp:406] score <- data_data_0_split_1
I1205 05:03:09.633500 17222 net.cpp:380] score -> score
I1205 05:03:09.633536 17222 net.cpp:122] Setting up score
I1205 05:03:09.633553 17222 net.cpp:129] Top shape: 1 21 366 500 (3843000)
I1205 05:03:09.633556 17222 net.cpp:137] Memory required for data: 961396640
I1205 05:03:09.633558 17222 layer_factory.hpp:77] Creating layer loss
I1205 05:03:09.633565 17222 net.cpp:84] Creating Layer loss
I1205 05:03:09.633569 17222 net.cpp:406] loss <- score
I1205 05:03:09.633571 17222 net.cpp:406] loss <- label
I1205 05:03:09.633577 17222 net.cpp:380] loss -> loss
I1205 05:03:09.633586 17222 layer_factory.hpp:77] Creating layer loss
…
I1205 05:03:09.645601 17222 upgrade_proto.cpp:67] Attempting to upgrade input file specified using deprecated input fields: ../ilsvrc-nets/VGG_ILSVRC_16_layers_deploy.prototxt
I1205 05:03:09.645612 17222 upgrade_proto.cpp:70] Successfully upgraded file specified using deprecated input fields.
W1205 05:03:09.645614 17222 upgrade_proto.cpp:72] Note that future Caffe releases will only support input layers and not input fields.
I1205 05:03:09.645803 17222 net.cpp:51] Initializing net from parameters: 
name: "VGG_ILSVRC_16_layers"
state {
  phase: TEST
  level: 0
}
layer {
  name: "input"
  type: "Input"
  top: "data"
  input_param {
    shape {
      dim: 10
      dim: 3
      dim: 224
      dim: 224
    }
  }
}
layer {
  name: "conv1_1"
  type: "Convolution"
  bottom: "data"
  top: "conv1_1"
  convolution_param {
    num_output: 64
    pad: 1
    kernel_size: 3
  }
}
layer {
  name: "relu1_1"
  type: "ReLU"
  bottom: "conv1_1"
  top: "conv1_1"
}
layer {
  name: "conv1_2"
  type: "Convolution"
  bottom: "conv1_1"
  top: "conv1_2"
  convolution_param {
    num_output: 64
    pad: 1
    kernel_size: 3
  }
}
layer {
  name: "relu1_2"
  type: "ReLU"
  bottom: "conv1_2"
  top: "conv1_2"
}
layer {
  name: "pool1"
  type: "Pooling"
  bottom: "conv1_2"
  top: "pool1"
  pooling_param {
    pool: MAX
    kernel_size: 2
    stride: 2
  }
}
layer {
  name: "conv2_1"
  type: "Convolution"
  bottom: "pool1"
  top: "conv2_1"
  convolution_param {
    num_output: 128
    pad: 1
    kernel_size: 3
  }
}
layer {
  name: "relu2_1"
  type: "ReLU"
  bottom: "conv2_1"
  top: "conv2_1"
}
layer {
  name: "conv2_2"
  type: "Convolution"
  bottom: "conv2_1"
  top: "conv2_2"
  convolution_param {
    num_output: 128
    pad: 1
    kernel_size: 3
  }
}
layer {
  name: "relu2_2"
  type: "ReLU"
  bottom: "conv2_2"
  top: "conv2_2"
}
layer {
  name: "pool2"
  type: "Pooling"
  bottom: "conv2_2"
  top: "pool2"
  pooling_param {
    pool: MAX
    kernel_size: 2
    stride: 2
  }
}
layer {
  name: "conv3_1"
  type: "Convolution"
  bottom: "pool2"
  top: "conv3_1"
  convolution_param {
    num_output: 256
    pad: 1
    kernel_size: 3
  }
}
layer {
  name: "relu3_1"
  type: "ReLU"
  bottom: "conv3_1"
  top: "conv3_1"
}
layer {
  name: "conv3_2"
  type: "Convolution"
  bottom: "conv3_1"
  top: "conv3_2"
  convolution_param {
    num_output: 256
    pad: 1
    kernel_size: 3
  }
}
layer {
  name: "relu3_2"
  type: "ReLU"
  bottom: "conv3_2"
  top: "conv3_2"
}
layer {
  name: "conv3_3"
  type: "Convolution"
  bottom: "conv3_2"
  top: "conv3_3"
  convolution_param {
    num_output: 256
    pad: 1
    kernel_size: 3
  }
}
layer {
  name: "relu3_3"
  type: "ReLU"
  bottom: "conv3_3"
  top: "conv3_3"
}
layer {
  name: "pool3"
  type: "Pooling"
  bottom: "conv3_3"
  top: "pool3"
  pooling_param {
    pool: MAX
    kernel_size: 2
    stride: 2
  }
}
layer {
  name: "conv4_1"
  type: "Convolution"
  bottom: "pool3"
  top: "conv4_1"
  convolution_param {
    num_output: 512
    pad: 1
    kernel_size: 3
  }
}
layer {
  name: "relu4_1"
  type: "ReLU"
  bottom: "conv4_1"
  top: "conv4_1"
}
layer {
  name: "conv4_2"
  type: "Convolution"
  bottom: "conv4_1"
  top: "conv4_2"
  convolution_param {
    num_output: 512
    pad: 1
    kernel_size: 3
  }
}
layer {
  name: "relu4_2"
  type: "ReLU"
  bottom: "conv4_2"
  top: "conv4_2"
}
layer {
  name: "conv4_3"
  type: "Convolution"
  bottom: "conv4_2"
  top: "conv4_3"
  convolution_param {
    num_output: 512
    pad: 1
    kernel_size: 3
  }
}
layer {
  name: "relu4_3"
  type: "ReLU"
  bottom: "conv4_3"
  top: "conv4_3"
}
layer {
  name: "pool4"
  type: "Pooling"
  bottom: "conv4_3"
  top: "pool4"
  pooling_param {
    pool: MAX
    kernel_size: 2
    stride: 2
  }
}
layer {
  name: "conv5_1"
  type: "Convolution"
  bottom: "pool4"
  top: "conv5_1"
  convolution_param {
    num_output: 512
    pad: 1
    kernel_size: 3
  }
}
layer {
  name: "relu5_1"
  type: "ReLU"
  bottom: "conv5_1"
  top: "conv5_1"
}
layer {
  name: "conv5_2"
  type: "Convolution"
  bottom: "conv5_1"
  top: "conv5_2"
  convolution_param {
    num_output: 512
    pad: 1
    kernel_size: 3
  }
}
layer {
  name: "relu5_2"
  type: "ReLU"
  bottom: "conv5_2"
  top: "conv5_2"
}
layer {
  name: "conv5_3"
  type: "Convolution"
  bottom: "conv5_2"
  top: "conv5_3"
  convolution_param {
    num_output: 512
    pad: 1
    kernel_size: 3
  }
}
layer {
  name: "relu5_3"
  type: "ReLU"
  bottom: "conv5_3"
  top: "conv5_3"
}
layer {
  name: "pool5"
  type: "Pooling"
  bottom: "conv5_3"
  top: "pool5"
  pooling_param {
    pool: MAX
    kernel_size: 2
    stride: 2
  }
}
layer {
  name: "fc6"
  type: "InnerProduct"
  bottom: "pool5"
  top: "fc6"
  inner_product_param {
    num_output: 4096
  }
}
layer {
  name: "relu6"
  type: "ReLU"
  bottom: "fc6"
  top: "fc6"
}
layer {
  name: "drop6"
  type: "Dropout"
  bottom: "fc6"
  top: "fc6"
  dropout_param {
    dropout_ratio: 0.5
  }
}
layer {
  name: "fc7"
  type: "InnerProduct"
  bottom: "fc6"
  top: "fc7"
  inner_product_param {
    num_output: 4096
  }
}
layer {
  name: "relu7"
  type: "ReLU"
  bottom: "fc7"
  top: "fc7"
}
layer {
  name: "drop7"
  type: "Dropout"
  bottom: "fc7"
  top: "fc7"
  dropout_param {
    dropout_ratio: 0.5
  }
}
layer {
  name: "fc8"
  type: "InnerProduct"
  bottom: "fc7"
  top: "fc8"
  inner_product_param {
    num_output: 1000
  }
}
layer {
  name: "prob"
  type: "Softmax"
  bottom: "fc8"
  top: "prob"
}
I1205 05:03:09.645956 17222 layer_factory.hpp:77] Creating layer input
I1205 05:03:09.645982 17222 net.cpp:84] Creating Layer input
I1205 05:03:09.645987 17222 net.cpp:380] input -> data
I1205 05:03:09.646047 17222 net.cpp:122] Setting up input
I1205 05:03:09.646055 17222 net.cpp:129] Top shape: 10 3 224 224 (1505280)
I1205 05:03:09.646059 17222 net.cpp:137] Memory required for data: 6021120
I1205 05:03:09.646061 17222 layer_factory.hpp:77] Creating layer conv1_1
I1205 05:03:09.646067 17222 net.cpp:84] Creating Layer conv1_1
I1205 05:03:09.646070 17222 net.cpp:406] conv1_1 <- data
I1205 05:03:09.646091 17222 net.cpp:380] conv1_1 -> conv1_1
I1205 05:03:09.648732 17222 net.cpp:122] Setting up conv1_1
I1205 05:03:09.648761 17222 net.cpp:129] Top shape: 10 64 224 224 (32112640)
I1205 05:03:09.648766 17222 net.cpp:137] Memory required for data: 134471680
I1205 05:03:09.648774 17222 layer_factory.hpp:77] Creating layer relu1_1
I1205 05:03:09.648782 17222 net.cpp:84] Creating Layer relu1_1
I1205 05:03:09.648785 17222 net.cpp:406] relu1_1 <- conv1_1
I1205 05:03:09.648792 17222 net.cpp:367] relu1_1 -> conv1_1 (in-place)
I1205 05:03:09.649924 17222 net.cpp:122] Setting up relu1_1
I1205 05:03:09.649950 17222 net.cpp:129] Top shape: 10 64 224 224 (32112640)
I1205 05:03:09.649971 17222 net.cpp:137] Memory required for data: 262922240
I1205 05:03:09.649974 17222 layer_factory.hpp:77] Creating layer conv1_2
I1205 05:03:09.649981 17222 net.cpp:84] Creating Layer conv1_2
I1205 05:03:09.649984 17222 net.cpp:406] conv1_2 <- conv1_1
I1205 05:03:09.650008 17222 net.cpp:380] conv1_2 -> conv1_2
I1205 05:03:09.652519 17222 net.cpp:122] Setting up conv1_2
I1205 05:03:09.652550 17222 net.cpp:129] Top shape: 10 64 224 224 (32112640)
I1205 05:03:09.652555 17222 net.cpp:137] Memory required for data: 391372800
I1205 05:03:09.652565 17222 layer_factory.hpp:77] Creating layer relu1_2
I1205 05:03:09.652570 17222 net.cpp:84] Creating Layer relu1_2
I1205 05:03:09.652573 17222 net.cpp:406] relu1_2 <- conv1_2
I1205 05:03:09.652578 17222 net.cpp:367] relu1_2 -> conv1_2 (in-place)
I1205 05:03:09.653067 17222 net.cpp:122] Setting up relu1_2
I1205 05:03:09.653091 17222 net.cpp:129] Top shape: 10 64 224 224 (32112640)
I1205 05:03:09.653095 17222 net.cpp:137] Memory required for data: 519823360
I1205 05:03:09.653098 17222 layer_factory.hpp:77] Creating layer pool1
I1205 05:03:09.653105 17222 net.cpp:84] Creating Layer pool1
I1205 05:03:09.653108 17222 net.cpp:406] pool1 <- conv1_2
I1205 05:03:09.653112 17222 net.cpp:380] pool1 -> pool1
I1205 05:03:09.653172 17222 net.cpp:122] Setting up pool1
I1205 05:03:09.653190 17222 net.cpp:129] Top shape: 10 64 112 112 (8028160)
I1205 05:03:09.653193 17222 net.cpp:137] Memory required for data: 551936000
I1205 05:03:09.653196 17222 layer_factory.hpp:77] Creating layer conv2_1
I1205 05:03:09.653204 17222 net.cpp:84] Creating Layer conv2_1
I1205 05:03:09.653208 17222 net.cpp:406] conv2_1 <- pool1
I1205 05:03:09.653211 17222 net.cpp:380] conv2_1 -> conv2_1
I1205 05:03:09.656028 17222 net.cpp:122] Setting up conv2_1
I1205 05:03:09.656054 17222 net.cpp:129] Top shape: 10 128 112 112 (16056320)
I1205 05:03:09.656059 17222 net.cpp:137] Memory required for data: 616161280
I1205 05:03:09.656069 17222 layer_factory.hpp:77] Creating layer relu2_1
I1205 05:03:09.656075 17222 net.cpp:84] Creating Layer relu2_1
I1205 05:03:09.656078 17222 net.cpp:406] relu2_1 <- conv2_1
I1205 05:03:09.656082 17222 net.cpp:367] relu2_1 -> conv2_1 (in-place)
I1205 05:03:09.656563 17222 net.cpp:122] Setting up relu2_1
I1205 05:03:09.656584 17222 net.cpp:129] Top shape: 10 128 112 112 (16056320)
I1205 05:03:09.656587 17222 net.cpp:137] Memory required for data: 680386560
I1205 05:03:09.656590 17222 layer_factory.hpp:77] Creating layer conv2_2
I1205 05:03:09.656600 17222 net.cpp:84] Creating Layer conv2_2
I1205 05:03:09.656603 17222 net.cpp:406] conv2_2 <- conv2_1
I1205 05:03:09.656610 17222 net.cpp:380] conv2_2 -> conv2_2
I1205 05:03:09.660712 17222 net.cpp:122] Setting up conv2_2
I1205 05:03:09.660742 17222 net.cpp:129] Top shape: 10 128 112 112 (16056320)
I1205 05:03:09.660745 17222 net.cpp:137] Memory required for data: 744611840
I1205 05:03:09.660753 17222 layer_factory.hpp:77] Creating layer relu2_2
I1205 05:03:09.660758 17222 net.cpp:84] Creating Layer relu2_2
I1205 05:03:09.660761 17222 net.cpp:406] relu2_2 <- conv2_2
I1205 05:03:09.660765 17222 net.cpp:367] relu2_2 -> conv2_2 (in-place)
I1205 05:03:09.661897 17222 net.cpp:122] Setting up relu2_2
I1205 05:03:09.661942 17222 net.cpp:129] Top shape: 10 128 112 112 (16056320)
I1205 05:03:09.661962 17222 net.cpp:137] Memory required for data: 808837120
I1205 05:03:09.661964 17222 layer_factory.hpp:77] Creating layer pool2
I1205 05:03:09.661986 17222 net.cpp:84] Creating Layer pool2
I1205 05:03:09.661990 17222 net.cpp:406] pool2 <- conv2_2
I1205 05:03:09.661995 17222 net.cpp:380] pool2 -> pool2
I1205 05:03:09.662075 17222 net.cpp:122] Setting up pool2
I1205 05:03:09.662092 17222 net.cpp:129] Top shape: 10 128 56 56 (4014080)
I1205 05:03:09.662096 17222 net.cpp:137] Memory required for data: 824893440
I1205 05:03:09.662099 17222 layer_factory.hpp:77] Creating layer conv3_1
I1205 05:03:09.662107 17222 net.cpp:84] Creating Layer conv3_1
I1205 05:03:09.662111 17222 net.cpp:406] conv3_1 <- pool2
I1205 05:03:09.662115 17222 net.cpp:380] conv3_1 -> conv3_1
I1205 05:03:09.664880 17222 net.cpp:122] Setting up conv3_1
I1205 05:03:09.664906 17222 net.cpp:129] Top shape: 10 256 56 56 (8028160)
I1205 05:03:09.664909 17222 net.cpp:137] Memory required for data: 857006080
I1205 05:03:09.664918 17222 layer_factory.hpp:77] Creating layer relu3_1
I1205 05:03:09.664927 17222 net.cpp:84] Creating Layer relu3_1
I1205 05:03:09.664929 17222 net.cpp:406] relu3_1 <- conv3_1
I1205 05:03:09.664933 17222 net.cpp:367] relu3_1 -> conv3_1 (in-place)
I1205 05:03:09.665421 17222 net.cpp:122] Setting up relu3_1
I1205 05:03:09.665441 17222 net.cpp:129] Top shape: 10 256 56 56 (8028160)
I1205 05:03:09.665446 17222 net.cpp:137] Memory required for data: 889118720
I1205 05:03:09.665448 17222 layer_factory.hpp:77] Creating layer conv3_2
I1205 05:03:09.665457 17222 net.cpp:84] Creating Layer conv3_2
I1205 05:03:09.665460 17222 net.cpp:406] conv3_2 <- conv3_1
I1205 05:03:09.665467 17222 net.cpp:380] conv3_2 -> conv3_2
I1205 05:03:09.670094 17222 net.cpp:122] Setting up conv3_2
I1205 05:03:09.670120 17222 net.cpp:129] Top shape: 10 256 56 56 (8028160)
I1205 05:03:09.670140 17222 net.cpp:137] Memory required for data: 921231360
I1205 05:03:09.670146 17222 layer_factory.hpp:77] Creating layer relu3_2
I1205 05:03:09.670169 17222 net.cpp:84] Creating Layer relu3_2
I1205 05:03:09.670188 17222 net.cpp:406] relu3_2 <- conv3_2
I1205 05:03:09.670193 17222 net.cpp:367] relu3_2 -> conv3_2 (in-place)
I1205 05:03:09.670801 17222 net.cpp:122] Setting up relu3_2
I1205 05:03:09.670822 17222 net.cpp:129] Top shape: 10 256 56 56 (8028160)
I1205 05:03:09.670826 17222 net.cpp:137] Memory required for data: 953344000
I1205 05:03:09.670830 17222 layer_factory.hpp:77] Creating layer conv3_3
I1205 05:03:09.670837 17222 net.cpp:84] Creating Layer conv3_3
I1205 05:03:09.670841 17222 net.cpp:406] conv3_3 <- conv3_2
I1205 05:03:09.670850 17222 net.cpp:380] conv3_3 -> conv3_3
I1205 05:03:09.675357 17222 net.cpp:122] Setting up conv3_3
I1205 05:03:09.675390 17222 net.cpp:129] Top shape: 10 256 56 56 (8028160)
I1205 05:03:09.675395 17222 net.cpp:137] Memory required for data: 985456640
I1205 05:03:09.675400 17222 layer_factory.hpp:77] Creating layer relu3_3
I1205 05:03:09.675410 17222 net.cpp:84] Creating Layer relu3_3
I1205 05:03:09.675413 17222 net.cpp:406] relu3_3 <- conv3_3
I1205 05:03:09.675417 17222 net.cpp:367] relu3_3 -> conv3_3 (in-place)
I1205 05:03:09.675907 17222 net.cpp:122] Setting up relu3_3
I1205 05:03:09.675928 17222 net.cpp:129] Top shape: 10 256 56 56 (8028160)
I1205 05:03:09.675932 17222 net.cpp:137] Memory required for data: 1017569280
I1205 05:03:09.675935 17222 layer_factory.hpp:77] Creating layer pool3
I1205 05:03:09.675942 17222 net.cpp:84] Creating Layer pool3
I1205 05:03:09.675945 17222 net.cpp:406] pool3 <- conv3_3
I1205 05:03:09.675951 17222 net.cpp:380] pool3 -> pool3
I1205 05:03:09.676009 17222 net.cpp:122] Setting up pool3
I1205 05:03:09.676026 17222 net.cpp:129] Top shape: 10 256 28 28 (2007040)
I1205 05:03:09.676030 17222 net.cpp:137] Memory required for data: 1025597440
I1205 05:03:09.676033 17222 layer_factory.hpp:77] Creating layer conv4_1
I1205 05:03:09.676040 17222 net.cpp:84] Creating Layer conv4_1
I1205 05:03:09.676043 17222 net.cpp:406] conv4_1 <- pool3
I1205 05:03:09.676048 17222 net.cpp:380] conv4_1 -> conv4_1
I1205 05:03:09.682142 17222 net.cpp:122] Setting up conv4_1
I1205 05:03:09.682170 17222 net.cpp:129] Top shape: 10 512 28 28 (4014080)
I1205 05:03:09.682174 17222 net.cpp:137] Memory required for data: 1041653760
I1205 05:03:09.682180 17222 layer_factory.hpp:77] Creating layer relu4_1
I1205 05:03:09.682186 17222 net.cpp:84] Creating Layer relu4_1
I1205 05:03:09.682189 17222 net.cpp:406] relu4_1 <- conv4_1
I1205 05:03:09.682194 17222 net.cpp:367] relu4_1 -> conv4_1 (in-place)
I1205 05:03:09.683089 17222 net.cpp:122] Setting up relu4_1
I1205 05:03:09.683112 17222 net.cpp:129] Top shape: 10 512 28 28 (4014080)
I1205 05:03:09.683116 17222 net.cpp:137] Memory required for data: 1057710080
I1205 05:03:09.683120 17222 layer_factory.hpp:77] Creating layer conv4_2
I1205 05:03:09.683127 17222 net.cpp:84] Creating Layer conv4_2
I1205 05:03:09.683131 17222 net.cpp:406] conv4_2 <- conv4_1
I1205 05:03:09.683137 17222 net.cpp:380] conv4_2 -> conv4_2
I1205 05:03:09.690778 17222 net.cpp:122] Setting up conv4_2
I1205 05:03:09.690804 17222 net.cpp:129] Top shape: 10 512 28 28 (4014080)
I1205 05:03:09.690807 17222 net.cpp:137] Memory required for data: 1073766400
I1205 05:03:09.690819 17222 layer_factory.hpp:77] Creating layer relu4_2
I1205 05:03:09.690824 17222 net.cpp:84] Creating Layer relu4_2
I1205 05:03:09.690829 17222 net.cpp:406] relu4_2 <- conv4_2
I1205 05:03:09.690850 17222 net.cpp:367] relu4_2 -> conv4_2 (in-place)
I1205 05:03:09.691485 17222 net.cpp:122] Setting up relu4_2
I1205 05:03:09.691509 17222 net.cpp:129] Top shape: 10 512 28 28 (4014080)
I1205 05:03:09.691511 17222 net.cpp:137] Memory required for data: 1089822720
I1205 05:03:09.691514 17222 layer_factory.hpp:77] Creating layer conv4_3
I1205 05:03:09.691522 17222 net.cpp:84] Creating Layer conv4_3
I1205 05:03:09.691526 17222 net.cpp:406] conv4_3 <- conv4_2
I1205 05:03:09.691530 17222 net.cpp:380] conv4_3 -> conv4_3
I1205 05:03:09.698921 17222 net.cpp:122] Setting up conv4_3
I1205 05:03:09.698949 17222 net.cpp:129] Top shape: 10 512 28 28 (4014080)
I1205 05:03:09.698954 17222 net.cpp:137] Memory required for data: 1105879040
I1205 05:03:09.698961 17222 layer_factory.hpp:77] Creating layer relu4_3
I1205 05:03:09.698966 17222 net.cpp:84] Creating Layer relu4_3
I1205 05:03:09.698969 17222 net.cpp:406] relu4_3 <- conv4_3
I1205 05:03:09.698976 17222 net.cpp:367] relu4_3 -> conv4_3 (in-place)
I1205 05:03:09.699515 17222 net.cpp:122] Setting up relu4_3
I1205 05:03:09.699538 17222 net.cpp:129] Top shape: 10 512 28 28 (4014080)
I1205 05:03:09.699556 17222 net.cpp:137] Memory required for data: 1121935360
I1205 05:03:09.699560 17222 layer_factory.hpp:77] Creating layer pool4
I1205 05:03:09.699565 17222 net.cpp:84] Creating Layer pool4
I1205 05:03:09.699569 17222 net.cpp:406] pool4 <- conv4_3
I1205 05:03:09.699575 17222 net.cpp:380] pool4 -> pool4
I1205 05:03:09.699637 17222 net.cpp:122] Setting up pool4
I1205 05:03:09.699653 17222 net.cpp:129] Top shape: 10 512 14 14 (1003520)
I1205 05:03:09.699656 17222 net.cpp:137] Memory required for data: 1125949440
I1205 05:03:09.699659 17222 layer_factory.hpp:77] Creating layer conv5_1
I1205 05:03:09.699667 17222 net.cpp:84] Creating Layer conv5_1
I1205 05:03:09.699671 17222 net.cpp:406] conv5_1 <- pool4
I1205 05:03:09.699676 17222 net.cpp:380] conv5_1 -> conv5_1
I1205 05:03:09.707046 17222 net.cpp:122] Setting up conv5_1
I1205 05:03:09.707073 17222 net.cpp:129] Top shape: 10 512 14 14 (1003520)
I1205 05:03:09.707078 17222 net.cpp:137] Memory required for data: 1129963520
I1205 05:03:09.707084 17222 layer_factory.hpp:77] Creating layer relu5_1
I1205 05:03:09.707090 17222 net.cpp:84] Creating Layer relu5_1
I1205 05:03:09.707093 17222 net.cpp:406] relu5_1 <- conv5_1
I1205 05:03:09.707099 17222 net.cpp:367] relu5_1 -> conv5_1 (in-place)
I1205 05:03:09.708067 17222 net.cpp:122] Setting up relu5_1
I1205 05:03:09.708093 17222 net.cpp:129] Top shape: 10 512 14 14 (1003520)
I1205 05:03:09.708097 17222 net.cpp:137] Memory required for data: 1133977600
I1205 05:03:09.708101 17222 layer_factory.hpp:77] Creating layer conv5_2
I1205 05:03:09.708108 17222 net.cpp:84] Creating Layer conv5_2
I1205 05:03:09.708112 17222 net.cpp:406] conv5_2 <- conv5_1
I1205 05:03:09.708117 17222 net.cpp:380] conv5_2 -> conv5_2
I1205 05:03:09.716282 17222 net.cpp:122] Setting up conv5_2
I1205 05:03:09.716310 17222 net.cpp:129] Top shape: 10 512 14 14 (1003520)
I1205 05:03:09.716329 17222 net.cpp:137] Memory required for data: 1137991680
I1205 05:03:09.716359 17222 layer_factory.hpp:77] Creating layer relu5_2
I1205 05:03:09.716368 17222 net.cpp:84] Creating Layer relu5_2
I1205 05:03:09.716388 17222 net.cpp:406] relu5_2 <- conv5_2
I1205 05:03:09.716392 17222 net.cpp:367] relu5_2 -> conv5_2 (in-place)
I1205 05:03:09.716912 17222 net.cpp:122] Setting up relu5_2
I1205 05:03:09.716936 17222 net.cpp:129] Top shape: 10 512 14 14 (1003520)
I1205 05:03:09.716940 17222 net.cpp:137] Memory required for data: 1142005760
I1205 05:03:09.716943 17222 layer_factory.hpp:77] Creating layer conv5_3
I1205 05:03:09.716950 17222 net.cpp:84] Creating Layer conv5_3
I1205 05:03:09.716955 17222 net.cpp:406] conv5_3 <- conv5_2
I1205 05:03:09.716960 17222 net.cpp:380] conv5_3 -> conv5_3
I1205 05:03:09.724300 17222 net.cpp:122] Setting up conv5_3
I1205 05:03:09.724330 17222 net.cpp:129] Top shape: 10 512 14 14 (1003520)
I1205 05:03:09.724334 17222 net.cpp:137] Memory required for data: 1146019840
I1205 05:03:09.724340 17222 layer_factory.hpp:77] Creating layer relu5_3
I1205 05:03:09.724354 17222 net.cpp:84] Creating Layer relu5_3
I1205 05:03:09.724357 17222 net.cpp:406] relu5_3 <- conv5_3
I1205 05:03:09.724361 17222 net.cpp:367] relu5_3 -> conv5_3 (in-place)
I1205 05:03:09.724812 17222 net.cpp:122] Setting up relu5_3
I1205 05:03:09.724834 17222 net.cpp:129] Top shape: 10 512 14 14 (1003520)
I1205 05:03:09.724838 17222 net.cpp:137] Memory required for data: 1150033920
I1205 05:03:09.724840 17222 layer_factory.hpp:77] Creating layer pool5
I1205 05:03:09.724848 17222 net.cpp:84] Creating Layer pool5
I1205 05:03:09.724851 17222 net.cpp:406] pool5 <- conv5_3
I1205 05:03:09.724884 17222 net.cpp:380] pool5 -> pool5
I1205 05:03:09.724975 17222 net.cpp:122] Setting up pool5
I1205 05:03:09.724982 17222 net.cpp:129] Top shape: 10 512 7 7 (250880)
I1205 05:03:09.724985 17222 net.cpp:137] Memory required for data: 1151037440
I1205 05:03:09.724988 17222 layer_factory.hpp:77] Creating layer fc6
I1205 05:03:09.725003 17222 net.cpp:84] Creating Layer fc6
I1205 05:03:09.725008 17222 net.cpp:406] fc6 <- pool5
I1205 05:03:09.725013 17222 net.cpp:380] fc6 -> fc6
I1205 05:03:10.024803 17222 net.cpp:122] Setting up fc6
I1205 05:03:10.024866 17222 net.cpp:129] Top shape: 10 4096 (40960)
I1205 05:03:10.024871 17222 net.cpp:137] Memory required for data: 1151201280
I1205 05:03:10.024881 17222 layer_factory.hpp:77] Creating layer relu6
I1205 05:03:10.024893 17222 net.cpp:84] Creating Layer relu6
I1205 05:03:10.024899 17222 net.cpp:406] relu6 <- fc6
I1205 05:03:10.024904 17222 net.cpp:367] relu6 -> fc6 (in-place)
I1205 05:03:10.026499 17222 net.cpp:122] Setting up relu6
I1205 05:03:10.026525 17222 net.cpp:129] Top shape: 10 4096 (40960)
I1205 05:03:10.026576 17222 net.cpp:137] Memory required for data: 1151365120
I1205 05:03:10.026595 17222 layer_factory.hpp:77] Creating layer drop6
I1205 05:03:10.026621 17222 net.cpp:84] Creating Layer drop6
I1205 05:03:10.026625 17222 net.cpp:406] drop6 <- fc6
I1205 05:03:10.026630 17222 net.cpp:367] drop6 -> fc6 (in-place)
I1205 05:03:10.026723 17222 net.cpp:122] Setting up drop6
I1205 05:03:10.026741 17222 net.cpp:129] Top shape: 10 4096 (40960)
I1205 05:03:10.026744 17222 net.cpp:137] Memory required for data: 1151528960
I1205 05:03:10.026748 17222 layer_factory.hpp:77] Creating layer fc7
I1205 05:03:10.026754 17222 net.cpp:84] Creating Layer fc7
I1205 05:03:10.026757 17222 net.cpp:406] fc7 <- fc6
I1205 05:03:10.026764 17222 net.cpp:380] fc7 -> fc7
I1205 05:03:10.073787 17222 net.cpp:122] Setting up fc7
I1205 05:03:10.073839 17222 net.cpp:129] Top shape: 10 4096 (40960)
I1205 05:03:10.073844 17222 net.cpp:137] Memory required for data: 1151692800
I1205 05:03:10.073863 17222 layer_factory.hpp:77] Creating layer relu7
I1205 05:03:10.073880 17222 net.cpp:84] Creating Layer relu7
I1205 05:03:10.073885 17222 net.cpp:406] relu7 <- fc7
I1205 05:03:10.073892 17222 net.cpp:367] relu7 -> fc7 (in-place)
I1205 05:03:10.075317 17222 net.cpp:122] Setting up relu7
I1205 05:03:10.075343 17222 net.cpp:129] Top shape: 10 4096 (40960)
I1205 05:03:10.075347 17222 net.cpp:137] Memory required for data: 1151856640
I1205 05:03:10.075351 17222 layer_factory.hpp:77] Creating layer drop7
I1205 05:03:10.075357 17222 net.cpp:84] Creating Layer drop7
I1205 05:03:10.075361 17222 net.cpp:406] drop7 <- fc7
I1205 05:03:10.075366 17222 net.cpp:367] drop7 -> fc7 (in-place)
I1205 05:03:10.075412 17222 net.cpp:122] Setting up drop7
I1205 05:03:10.075428 17222 net.cpp:129] Top shape: 10 4096 (40960)
I1205 05:03:10.075431 17222 net.cpp:137] Memory required for data: 1152020480
I1205 05:03:10.075434 17222 layer_factory.hpp:77] Creating layer fc8
I1205 05:03:10.075440 17222 net.cpp:84] Creating Layer fc8
I1205 05:03:10.075443 17222 net.cpp:406] fc8 <- fc7
I1205 05:03:10.075449 17222 net.cpp:380] fc8 -> fc8
I1205 05:03:10.083693 17222 net.cpp:122] Setting up fc8
I1205 05:03:10.083720 17222 net.cpp:129] Top shape: 10 1000 (10000)
I1205 05:03:10.083724 17222 net.cpp:137] Memory required for data: 1152060480
I1205 05:03:10.083731 17222 layer_factory.hpp:77] Creating layer prob
I1205 05:03:10.083740 17222 net.cpp:84] Creating Layer prob
I1205 05:03:10.083744 17222 net.cpp:406] prob <- fc8
I1205 05:03:10.083748 17222 net.cpp:380] prob -> prob
I1205 05:03:10.084482 17222 net.cpp:122] Setting up prob
I1205 05:03:10.084506 17222 net.cpp:129] Top shape: 10 1000 (10000)
I1205 05:03:10.084508 17222 net.cpp:137] Memory required for data: 1152100480
I1205 05:03:10.084512 17222 net.cpp:200] prob does not need backward computation.
I1205 05:03:10.084516 17222 net.cpp:200] fc8 does not need backward computation.
I1205 05:03:10.084517 17222 net.cpp:200] drop7 does not need backward computation.
I1205 05:03:10.084520 17222 net.cpp:200] relu7 does not need backward computation.
…
