…
test_initialization: false
average_loss: 200
iter_size: 1
I1210 02:24:33.796334 31653 solver.cpp:77] Creating training net from train_net file: train.prototxt
I1210 02:24:33.797226 31653 net.cpp:51] Initializing net from parameters: 
state {
  phase: TRAIN
}
layer {
  name: "data"
  type: "Python"
  top: "data"
  top: "label"
  python_param {
    module: "data_layer"
    layer: "TrainingDataLayer"
    param_str: "{\'mode\': \'train\', \'mean\': (104.00699, 116.66877, 122.67892), \'seed\': 1337, \'data_dir\': \'/jet/prs/workspace/VOCdevkit/VOC2012\'}"
  }
}
layer {
  name: "conv1_1"
  type: "Convolution"
  bottom: "data"
  top: "conv1_1"
  param {
    lr_mult: 1
    decay_mult: 1
  }
  param {
    lr_mult: 2
    decay_mult: 0
  }
  convolution_param {
    num_output: 64
    pad: 100
    kernel_size: 3
    stride: 1
  }
}
layer {
  name: "relu1_1"
  type: "ReLU"
  bottom: "conv1_1"
  top: "conv1_1"
}
layer {
  name: "conv1_2"
  type: "Convolution"
  bottom: "conv1_1"
  top: "conv1_2"
  param {
    lr_mult: 1
    decay_mult: 1
  }
  param {
    lr_mult: 2
    decay_mult: 0
  }
  convolution_param {
    num_output: 64
    pad: 1
    kernel_size: 3
    stride: 1
  }
}
layer {
  name: "relu1_2"
  type: "ReLU"
  bottom: "conv1_2"
  top: "conv1_2"
}
layer {
  name: "pool1"
  type: "Pooling"
  bottom: "conv1_2"
  top: "pool1"
  pooling_param {
    pool: MAX
    kernel_size: 2
    stride: 2
  }
}
layer {
  name: "conv2_1"
  type: "Convolution"
  bottom: "pool1"
  top: "conv2_1"
  param {
    lr_mult: 1
    decay_mult: 1
  }
  param {
    lr_mult: 2
    decay_mult: 0
  }
  convolution_param {
    num_output: 128
    pad: 1
    kernel_size: 3
    stride: 1
  }
}
layer {
  name: "relu2_1"
  type: "ReLU"
  bottom: "conv2_1"
  top: "conv2_1"
}
layer {
  name: "conv2_2"
  type: "Convolution"
  bottom: "conv2_1"
  top: "conv2_2"
  param {
    lr_mult: 1
    decay_mult: 1
  }
  param {
    lr_mult: 2
    decay_mult: 0
  }
  convolution_param {
    num_output: 128
    pad: 1
    kernel_size: 3
    stride: 1
  }
}
layer {
  name: "relu2_2"
  type: "ReLU"
  bottom: "conv2_2"
  top: "conv2_2"
}
layer {
  name: "pool2"
  type: "Pooling"
  bottom: "conv2_2"
  top: "pool2"
  pooling_param {
    pool: MAX
    kernel_size: 2
    stride: 2
  }
}
layer {
  name: "conv3_1"
  type: "Convolution"
  bottom: "pool2"
  top: "conv3_1"
  param {
    lr_mult: 1
    decay_mult: 1
  }
  param {
    lr_mult: 2
    decay_mult: 0
  }
  convolution_param {
    num_output: 256
    pad: 1
    kernel_size: 3
    stride: 1
  }
}
layer {
  name: "relu3_1"
  type: "ReLU"
  bottom: "conv3_1"
  top: "conv3_1"
}
layer {
  name: "conv3_2"
  type: "Convolution"
  bottom: "conv3_1"
  top: "conv3_2"
  param {
    lr_mult: 1
    decay_mult: 1
  }
  param {
    lr_mult: 2
    decay_mult: 0
  }
  convolution_param {
    num_output: 256
    pad: 1
    kernel_size: 3
    stride: 1
  }
}
layer {
  name: "relu3_2"
  type: "ReLU"
  bottom: "conv3_2"
  top: "conv3_2"
}
layer {
  name: "conv3_3"
  type: "Convolution"
  bottom: "conv3_2"
  top: "conv3_3"
  param {
    lr_mult: 1
    decay_mult: 1
  }
  param {
    lr_mult: 2
    decay_mult: 0
  }
  convolution_param {
    num_output: 256
    pad: 1
    kernel_size: 3
    stride: 1
  }
}
layer {
  name: "relu3_3"
  type: "ReLU"
  bottom: "conv3_3"
  top: "conv3_3"
}
layer {
  name: "pool3"
  type: "Pooling"
  bottom: "conv3_3"
  top: "pool3"
  pooling_param {
    pool: MAX
    kernel_size: 2
    stride: 2
  }
}
layer {
  name: "conv4_1"
  type: "Convolution"
  bottom: "pool3"
  top: "conv4_1"
  param {
    lr_mult: 1
    decay_mult: 1
  }
  param {
    lr_mult: 2
    decay_mult: 0
  }
  convolution_param {
    num_output: 512
    pad: 1
    kernel_size: 3
    stride: 1
  }
}
layer {
  name: "relu4_1"
  type: "ReLU"
  bottom: "conv4_1"
  top: "conv4_1"
}
layer {
  name: "conv4_2"
  type: "Convolution"
  bottom: "conv4_1"
  top: "conv4_2"
  param {
    lr_mult: 1
    decay_mult: 1
  }
  param {
    lr_mult: 2
    decay_mult: 0
  }
  convolution_param {
    num_output: 512
    pad: 1
    kernel_size: 3
    stride: 1
  }
}
layer {
  name: "relu4_2"
  type: "ReLU"
  bottom: "conv4_2"
  top: "conv4_2"
}
layer {
  name: "conv4_3"
  type: "Convolution"
  bottom: "conv4_2"
  top: "conv4_3"
  param {
    lr_mult: 1
    decay_mult: 1
  }
  param {
    lr_mult: 2
    decay_mult: 0
  }
  convolution_param {
    num_output: 512
    pad: 1
    kernel_size: 3
    stride: 1
  }
}
layer {
  name: "relu4_3"
  type: "ReLU"
  bottom: "conv4_3"
  top: "conv4_3"
}
layer {
  name: "conv5_1"
  type: "Convolution"
  bottom: "conv4_3"
  top: "conv5_1"
  param {
    lr_mult: 1
    decay_mult: 1
  }
  param {
    lr_mult: 2
    decay_mult: 0
  }
  convolution_param {
    num_output: 512
    pad: 2
    kernel_size: 3
    dilation: 2
  }
}
layer {
  name: "relu5_1"
  type: "ReLU"
  bottom: "conv5_1"
  top: "conv5_1"
}
layer {
  name: "conv5_2"
  type: "Convolution"
  bottom: "conv5_1"
  top: "conv5_2"
  param {
    lr_mult: 1
    decay_mult: 1
  }
  param {
    lr_mult: 2
    decay_mult: 0
  }
  convolution_param {
    num_output: 512
    pad: 2
    kernel_size: 3
    dilation: 2
  }
}
layer {
  name: "relu5_2"
  type: "ReLU"
  bottom: "conv5_2"
  top: "conv5_2"
}
layer {
  name: "conv5_3"
  type: "Convolution"
  bottom: "conv5_2"
  top: "conv5_3"
  param {
    lr_mult: 1
    decay_mult: 1
  }
  param {
    lr_mult: 2
    decay_mult: 0
  }
  convolution_param {
    num_output: 512
    pad: 2
    kernel_size: 3
    dilation: 2
  }
}
layer {
  name: "relu5_3"
  type: "ReLU"
  bottom: "conv5_3"
  top: "conv5_3"
}
layer {
  name: "fc6"
  type: "Convolution"
  bottom: "conv5_3"
  top: "fc6"
  param {
    lr_mult: 1
    decay_mult: 1
  }
  param {
    lr_mult: 2
    decay_mult: 0
  }
  convolution_param {
    num_output: 4096
    pad: 4
    kernel_size: 7
    dilation: 4
  }
}
layer {
  name: "relu6"
  type: "ReLU"
  bottom: "fc6"
  top: "fc6"
}
layer {
  name: "drop6"
  type: "Dropout"
  bottom: "fc6"
  top: "fc6"
  dropout_param {
    dropout_ratio: 0.5
  }
}
layer {
  name: "fc7"
  type: "Convolution"
  bottom: "fc6"
  top: "fc7"
  param {
    lr_mult: 1
    decay_mult: 1
  }
  param {
    lr_mult: 2
    decay_mult: 0
  }
  convolution_param {
    num_output: 4096
    pad: 0
    kernel_size: 1
    stride: 1
  }
}
layer {
  name: "relu7"
  type: "ReLU"
  bottom: "fc7"
  top: "fc7"
}
layer {
  name: "drop7"
  type: "Dropout"
  bottom: "fc7"
  top: "fc7"
  dropout_param {
    dropout_ratio: 0.5
  }
}
layer {
  name: "score_fr"
  type: "Convolution"
  bottom: "fc7"
  top: "score_fr"
  param {
    lr_mult: 1
    decay_mult: 1
  }
  param {
    lr_mult: 2
    decay_mult: 0
  }
  convolution_param {
    num_output: 21
    pad: 0
    kernel_size: 1
    stride: 1
  }
}
layer {
  name: "upscore"
  type: "Deconvolution"
  bottom: "score_fr"
  top: "upscore"
  param {
    lr_mult: 0
  }
  convolution_param {
    num_output: 21
    bias_term: false
    pad: 0
    kernel_size: 16
    stride: 8
  }
}
layer {
  name: "score"
  type: "Crop"
  bottom: "upscore"
  bottom: "data"
  top: "score"
  crop_param {
    axis: 2
    offset: 39
  }
}
layer {
  name: "loss"
  type: "SoftmaxWithLoss"
  bottom: "score"
  bottom: "label"
  top: "loss"
  loss_param {
    ignore_label: 255
    normalize: false
  }
}
I1210 02:24:33.797382 31653 layer_factory.hpp:77] Creating layer data
I1210 02:24:33.798099 31653 net.cpp:84] Creating Layer data
I1210 02:24:33.798135 31653 net.cpp:380] data -> data
I1210 02:24:33.798146 31653 net.cpp:380] data -> label
I1210 02:24:33.816284 31653 net.cpp:122] Setting up data
I1210 02:24:33.816315 31653 net.cpp:129] Top shape: 1 3 334 500 (501000)
I1210 02:24:33.816320 31653 net.cpp:129] Top shape: 1 1 334 500 (167000)
I1210 02:24:33.816323 31653 net.cpp:137] Memory required for data: 2672000
I1210 02:24:33.816328 31653 layer_factory.hpp:77] Creating layer data_data_0_split
I1210 02:24:33.816334 31653 net.cpp:84] Creating Layer data_data_0_split
I1210 02:24:33.816339 31653 net.cpp:406] data_data_0_split <- data
I1210 02:24:33.816344 31653 net.cpp:380] data_data_0_split -> data_data_0_split_0
I1210 02:24:33.816351 31653 net.cpp:380] data_data_0_split -> data_data_0_split_1
I1210 02:24:33.816380 31653 net.cpp:122] Setting up data_data_0_split
I1210 02:24:33.816385 31653 net.cpp:129] Top shape: 1 3 334 500 (501000)
I1210 02:24:33.816390 31653 net.cpp:129] Top shape: 1 3 334 500 (501000)
I1210 02:24:33.816391 31653 net.cpp:137] Memory required for data: 6680000
I1210 02:24:33.816395 31653 layer_factory.hpp:77] Creating layer conv1_1
I1210 02:24:33.816402 31653 net.cpp:84] Creating Layer conv1_1
I1210 02:24:33.816413 31653 net.cpp:406] conv1_1 <- data_data_0_split_0
I1210 02:24:33.816418 31653 net.cpp:380] conv1_1 -> conv1_1
I1210 02:24:34.506150 31653 net.cpp:122] Setting up conv1_1
I1210 02:24:34.506194 31653 net.cpp:129] Top shape: 1 64 532 698 (23765504)
I1210 02:24:34.506199 31653 net.cpp:137] Memory required for data: 101742016
I1210 02:24:34.506216 31653 layer_factory.hpp:77] Creating layer relu1_1
I1210 02:24:34.506227 31653 net.cpp:84] Creating Layer relu1_1
I1210 02:24:34.506232 31653 net.cpp:406] relu1_1 <- conv1_1
I1210 02:24:34.506237 31653 net.cpp:367] relu1_1 -> conv1_1 (in-place)
I1210 02:24:34.506634 31653 net.cpp:122] Setting up relu1_1
I1210 02:24:34.506657 31653 net.cpp:129] Top shape: 1 64 532 698 (23765504)
I1210 02:24:34.506661 31653 net.cpp:137] Memory required for data: 196804032
I1210 02:24:34.506664 31653 layer_factory.hpp:77] Creating layer conv1_2
I1210 02:24:34.506677 31653 net.cpp:84] Creating Layer conv1_2
I1210 02:24:34.506680 31653 net.cpp:406] conv1_2 <- conv1_1
I1210 02:24:34.506685 31653 net.cpp:380] conv1_2 -> conv1_2
I1210 02:24:34.510893 31653 net.cpp:122] Setting up conv1_2
I1210 02:24:34.510926 31653 net.cpp:129] Top shape: 1 64 532 698 (23765504)
I1210 02:24:34.510929 31653 net.cpp:137] Memory required for data: 291866048
I1210 02:24:34.510939 31653 layer_factory.hpp:77] Creating layer relu1_2
I1210 02:24:34.510947 31653 net.cpp:84] Creating Layer relu1_2
I1210 02:24:34.510951 31653 net.cpp:406] relu1_2 <- conv1_2
I1210 02:24:34.510957 31653 net.cpp:367] relu1_2 -> conv1_2 (in-place)
I1210 02:24:34.511344 31653 net.cpp:122] Setting up relu1_2
I1210 02:24:34.511368 31653 net.cpp:129] Top shape: 1 64 532 698 (23765504)
I1210 02:24:34.511370 31653 net.cpp:137] Memory required for data: 386928064
I1210 02:24:34.511374 31653 layer_factory.hpp:77] Creating layer pool1
I1210 02:24:34.511381 31653 net.cpp:84] Creating Layer pool1
I1210 02:24:34.511385 31653 net.cpp:406] pool1 <- conv1_2
I1210 02:24:34.511390 31653 net.cpp:380] pool1 -> pool1
I1210 02:24:34.511435 31653 net.cpp:122] Setting up pool1
I1210 02:24:34.511457 31653 net.cpp:129] Top shape: 1 64 266 349 (5941376)
I1210 02:24:34.511461 31653 net.cpp:137] Memory required for data: 410693568
I1210 02:24:34.511463 31653 layer_factory.hpp:77] Creating layer conv2_1
I1210 02:24:34.511471 31653 net.cpp:84] Creating Layer conv2_1
I1210 02:24:34.511474 31653 net.cpp:406] conv2_1 <- pool1
I1210 02:24:34.511481 31653 net.cpp:380] conv2_1 -> conv2_1
I1210 02:24:34.514219 31653 net.cpp:122] Setting up conv2_1
I1210 02:24:34.514247 31653 net.cpp:129] Top shape: 1 128 266 349 (11882752)
I1210 02:24:34.514251 31653 net.cpp:137] Memory required for data: 458224576
I1210 02:24:34.514261 31653 layer_factory.hpp:77] Creating layer relu2_1
I1210 02:24:34.514271 31653 net.cpp:84] Creating Layer relu2_1
I1210 02:24:34.514273 31653 net.cpp:406] relu2_1 <- conv2_1
I1210 02:24:34.514278 31653 net.cpp:367] relu2_1 -> conv2_1 (in-place)
I1210 02:24:34.515095 31653 net.cpp:122] Setting up relu2_1
I1210 02:24:34.515134 31653 net.cpp:129] Top shape: 1 128 266 349 (11882752)
I1210 02:24:34.515139 31653 net.cpp:137] Memory required for data: 505755584
I1210 02:24:34.515142 31653 layer_factory.hpp:77] Creating layer conv2_2
I1210 02:24:34.515153 31653 net.cpp:84] Creating Layer conv2_2
I1210 02:24:34.515156 31653 net.cpp:406] conv2_2 <- conv2_1
I1210 02:24:34.515164 31653 net.cpp:380] conv2_2 -> conv2_2
I1210 02:24:34.518852 31653 net.cpp:122] Setting up conv2_2
I1210 02:24:34.518882 31653 net.cpp:129] Top shape: 1 128 266 349 (11882752)
I1210 02:24:34.518887 31653 net.cpp:137] Memory required for data: 553286592
I1210 02:24:34.518893 31653 layer_factory.hpp:77] Creating layer relu2_2
I1210 02:24:34.518901 31653 net.cpp:84] Creating Layer relu2_2
I1210 02:24:34.518905 31653 net.cpp:406] relu2_2 <- conv2_2
I1210 02:24:34.518910 31653 net.cpp:367] relu2_2 -> conv2_2 (in-place)
I1210 02:24:34.519403 31653 net.cpp:122] Setting up relu2_2
I1210 02:24:34.519428 31653 net.cpp:129] Top shape: 1 128 266 349 (11882752)
I1210 02:24:34.519431 31653 net.cpp:137] Memory required for data: 600817600
I1210 02:24:34.519435 31653 layer_factory.hpp:77] Creating layer pool2
I1210 02:24:34.519449 31653 net.cpp:84] Creating Layer pool2
I1210 02:24:34.519454 31653 net.cpp:406] pool2 <- conv2_2
I1210 02:24:34.519461 31653 net.cpp:380] pool2 -> pool2
I1210 02:24:34.519513 31653 net.cpp:122] Setting up pool2
I1210 02:24:34.519529 31653 net.cpp:129] Top shape: 1 128 133 175 (2979200)
I1210 02:24:34.519532 31653 net.cpp:137] Memory required for data: 612734400
I1210 02:24:34.519536 31653 layer_factory.hpp:77] Creating layer conv3_1
I1210 02:24:34.519547 31653 net.cpp:84] Creating Layer conv3_1
I1210 02:24:34.519551 31653 net.cpp:406] conv3_1 <- pool2
I1210 02:24:34.519556 31653 net.cpp:380] conv3_1 -> conv3_1
I1210 02:24:34.523286 31653 net.cpp:122] Setting up conv3_1
I1210 02:24:34.523317 31653 net.cpp:129] Top shape: 1 256 133 175 (5958400)
I1210 02:24:34.523322 31653 net.cpp:137] Memory required for data: 636568000
I1210 02:24:34.523334 31653 layer_factory.hpp:77] Creating layer relu3_1
I1210 02:24:34.523341 31653 net.cpp:84] Creating Layer relu3_1
I1210 02:24:34.523345 31653 net.cpp:406] relu3_1 <- conv3_1
I1210 02:24:34.523350 31653 net.cpp:367] relu3_1 -> conv3_1 (in-place)
I1210 02:24:34.523840 31653 net.cpp:122] Setting up relu3_1
I1210 02:24:34.523866 31653 net.cpp:129] Top shape: 1 256 133 175 (5958400)
I1210 02:24:34.523869 31653 net.cpp:137] Memory required for data: 660401600
I1210 02:24:34.523872 31653 layer_factory.hpp:77] Creating layer conv3_2
I1210 02:24:34.523880 31653 net.cpp:84] Creating Layer conv3_2
I1210 02:24:34.523885 31653 net.cpp:406] conv3_2 <- conv3_1
I1210 02:24:34.523891 31653 net.cpp:380] conv3_2 -> conv3_2
I1210 02:24:34.527851 31653 net.cpp:122] Setting up conv3_2
I1210 02:24:34.527882 31653 net.cpp:129] Top shape: 1 256 133 175 (5958400)
I1210 02:24:34.527887 31653 net.cpp:137] Memory required for data: 684235200
I1210 02:24:34.527894 31653 layer_factory.hpp:77] Creating layer relu3_2
I1210 02:24:34.527900 31653 net.cpp:84] Creating Layer relu3_2
I1210 02:24:34.527904 31653 net.cpp:406] relu3_2 <- conv3_2
I1210 02:24:34.527909 31653 net.cpp:367] relu3_2 -> conv3_2 (in-place)
I1210 02:24:34.528730 31653 net.cpp:122] Setting up relu3_2
I1210 02:24:34.528758 31653 net.cpp:129] Top shape: 1 256 133 175 (5958400)
I1210 02:24:34.528762 31653 net.cpp:137] Memory required for data: 708068800
I1210 02:24:34.528765 31653 layer_factory.hpp:77] Creating layer conv3_3
I1210 02:24:34.528780 31653 net.cpp:84] Creating Layer conv3_3
I1210 02:24:34.528784 31653 net.cpp:406] conv3_3 <- conv3_2
I1210 02:24:34.528790 31653 net.cpp:380] conv3_3 -> conv3_3
I1210 02:24:34.532794 31653 net.cpp:122] Setting up conv3_3
I1210 02:24:34.532826 31653 net.cpp:129] Top shape: 1 256 133 175 (5958400)
I1210 02:24:34.532830 31653 net.cpp:137] Memory required for data: 731902400
I1210 02:24:34.532837 31653 layer_factory.hpp:77] Creating layer relu3_3
I1210 02:24:34.532843 31653 net.cpp:84] Creating Layer relu3_3
I1210 02:24:34.532847 31653 net.cpp:406] relu3_3 <- conv3_3
I1210 02:24:34.532852 31653 net.cpp:367] relu3_3 -> conv3_3 (in-place)
I1210 02:24:34.533380 31653 net.cpp:122] Setting up relu3_3
I1210 02:24:34.533407 31653 net.cpp:129] Top shape: 1 256 133 175 (5958400)
I1210 02:24:34.533411 31653 net.cpp:137] Memory required for data: 755736000
I1210 02:24:34.533416 31653 layer_factory.hpp:77] Creating layer pool3
I1210 02:24:34.533422 31653 net.cpp:84] Creating Layer pool3
I1210 02:24:34.533426 31653 net.cpp:406] pool3 <- conv3_3
I1210 02:24:34.533430 31653 net.cpp:380] pool3 -> pool3
I1210 02:24:34.533491 31653 net.cpp:122] Setting up pool3
I1210 02:24:34.533509 31653 net.cpp:129] Top shape: 1 256 67 88 (1509376)
I1210 02:24:34.533511 31653 net.cpp:137] Memory required for data: 761773504
I1210 02:24:34.533514 31653 layer_factory.hpp:77] Creating layer conv4_1
I1210 02:24:34.533524 31653 net.cpp:84] Creating Layer conv4_1
I1210 02:24:34.533526 31653 net.cpp:406] conv4_1 <- pool3
I1210 02:24:34.533533 31653 net.cpp:380] conv4_1 -> conv4_1
I1210 02:24:34.540889 31653 net.cpp:122] Setting up conv4_1
I1210 02:24:34.540921 31653 net.cpp:129] Top shape: 1 512 67 88 (3018752)
I1210 02:24:34.540926 31653 net.cpp:137] Memory required for data: 773848512
I1210 02:24:34.540933 31653 layer_factory.hpp:77] Creating layer relu4_1
I1210 02:24:34.540940 31653 net.cpp:84] Creating Layer relu4_1
I1210 02:24:34.540946 31653 net.cpp:406] relu4_1 <- conv4_1
I1210 02:24:34.540951 31653 net.cpp:367] relu4_1 -> conv4_1 (in-place)
I1210 02:24:34.541497 31653 net.cpp:122] Setting up relu4_1
I1210 02:24:34.541522 31653 net.cpp:129] Top shape: 1 512 67 88 (3018752)
I1210 02:24:34.541527 31653 net.cpp:137] Memory required for data: 785923520
I1210 02:24:34.541529 31653 layer_factory.hpp:77] Creating layer conv4_2
I1210 02:24:34.541540 31653 net.cpp:84] Creating Layer conv4_2
I1210 02:24:34.541543 31653 net.cpp:406] conv4_2 <- conv4_1
I1210 02:24:34.541549 31653 net.cpp:380] conv4_2 -> conv4_2
I1210 02:24:34.548941 31653 net.cpp:122] Setting up conv4_2
I1210 02:24:34.548974 31653 net.cpp:129] Top shape: 1 512 67 88 (3018752)
I1210 02:24:34.548979 31653 net.cpp:137] Memory required for data: 797998528
I1210 02:24:34.548991 31653 layer_factory.hpp:77] Creating layer relu4_2
I1210 02:24:34.549000 31653 net.cpp:84] Creating Layer relu4_2
I1210 02:24:34.549005 31653 net.cpp:406] relu4_2 <- conv4_2
I1210 02:24:34.549008 31653 net.cpp:367] relu4_2 -> conv4_2 (in-place)
I1210 02:24:34.549561 31653 net.cpp:122] Setting up relu4_2
I1210 02:24:34.549583 31653 net.cpp:129] Top shape: 1 512 67 88 (3018752)
I1210 02:24:34.549587 31653 net.cpp:137] Memory required for data: 810073536
I1210 02:24:34.549592 31653 layer_factory.hpp:77] Creating layer conv4_3
I1210 02:24:34.549602 31653 net.cpp:84] Creating Layer conv4_3
I1210 02:24:34.549605 31653 net.cpp:406] conv4_3 <- conv4_2
I1210 02:24:34.549612 31653 net.cpp:380] conv4_3 -> conv4_3
I1210 02:24:34.556767 31653 net.cpp:122] Setting up conv4_3
I1210 02:24:34.556802 31653 net.cpp:129] Top shape: 1 512 67 88 (3018752)
I1210 02:24:34.556807 31653 net.cpp:137] Memory required for data: 822148544
I1210 02:24:34.556814 31653 layer_factory.hpp:77] Creating layer relu4_3
I1210 02:24:34.556823 31653 net.cpp:84] Creating Layer relu4_3
I1210 02:24:34.556826 31653 net.cpp:406] relu4_3 <- conv4_3
I1210 02:24:34.556833 31653 net.cpp:367] relu4_3 -> conv4_3 (in-place)
I1210 02:24:34.557713 31653 net.cpp:122] Setting up relu4_3
I1210 02:24:34.557739 31653 net.cpp:129] Top shape: 1 512 67 88 (3018752)
I1210 02:24:34.557744 31653 net.cpp:137] Memory required for data: 834223552
I1210 02:24:34.557747 31653 layer_factory.hpp:77] Creating layer conv5_1
I1210 02:24:34.557760 31653 net.cpp:84] Creating Layer conv5_1
I1210 02:24:34.557765 31653 net.cpp:406] conv5_1 <- conv4_3
I1210 02:24:34.557770 31653 net.cpp:380] conv5_1 -> conv5_1
I1210 02:24:34.562973 31653 net.cpp:122] Setting up conv5_1
I1210 02:24:34.563002 31653 net.cpp:129] Top shape: 1 512 67 88 (3018752)
I1210 02:24:34.563006 31653 net.cpp:137] Memory required for data: 846298560
I1210 02:24:34.563014 31653 layer_factory.hpp:77] Creating layer relu5_1
I1210 02:24:34.563024 31653 net.cpp:84] Creating Layer relu5_1
I1210 02:24:34.563027 31653 net.cpp:406] relu5_1 <- conv5_1
I1210 02:24:34.563031 31653 net.cpp:367] relu5_1 -> conv5_1 (in-place)
I1210 02:24:34.563561 31653 net.cpp:122] Setting up relu5_1
I1210 02:24:34.563585 31653 net.cpp:129] Top shape: 1 512 67 88 (3018752)
I1210 02:24:34.563588 31653 net.cpp:137] Memory required for data: 858373568
I1210 02:24:34.563591 31653 layer_factory.hpp:77] Creating layer conv5_2
I1210 02:24:34.563601 31653 net.cpp:84] Creating Layer conv5_2
I1210 02:24:34.563606 31653 net.cpp:406] conv5_2 <- conv5_1
I1210 02:24:34.563612 31653 net.cpp:380] conv5_2 -> conv5_2
I1210 02:24:34.568776 31653 net.cpp:122] Setting up conv5_2
I1210 02:24:34.568804 31653 net.cpp:129] Top shape: 1 512 67 88 (3018752)
I1210 02:24:34.568809 31653 net.cpp:137] Memory required for data: 870448576
I1210 02:24:34.568814 31653 layer_factory.hpp:77] Creating layer relu5_2
I1210 02:24:34.568821 31653 net.cpp:84] Creating Layer relu5_2
I1210 02:24:34.568825 31653 net.cpp:406] relu5_2 <- conv5_2
I1210 02:24:34.568831 31653 net.cpp:367] relu5_2 -> conv5_2 (in-place)
I1210 02:24:34.569372 31653 net.cpp:122] Setting up relu5_2
I1210 02:24:34.569397 31653 net.cpp:129] Top shape: 1 512 67 88 (3018752)
I1210 02:24:34.569401 31653 net.cpp:137] Memory required for data: 882523584
I1210 02:24:34.569404 31653 layer_factory.hpp:77] Creating layer conv5_3
I1210 02:24:34.569414 31653 net.cpp:84] Creating Layer conv5_3
I1210 02:24:34.569418 31653 net.cpp:406] conv5_3 <- conv5_2
I1210 02:24:34.569423 31653 net.cpp:380] conv5_3 -> conv5_3
I1210 02:24:34.574601 31653 net.cpp:122] Setting up conv5_3
I1210 02:24:34.574631 31653 net.cpp:129] Top shape: 1 512 67 88 (3018752)
I1210 02:24:34.574635 31653 net.cpp:137] Memory required for data: 894598592
I1210 02:24:34.574641 31653 layer_factory.hpp:77] Creating layer relu5_3
I1210 02:24:34.574648 31653 net.cpp:84] Creating Layer relu5_3
I1210 02:24:34.574652 31653 net.cpp:406] relu5_3 <- conv5_3
I1210 02:24:34.574656 31653 net.cpp:367] relu5_3 -> conv5_3 (in-place)
I1210 02:24:34.575551 31653 net.cpp:122] Setting up relu5_3
I1210 02:24:34.575582 31653 net.cpp:129] Top shape: 1 512 67 88 (3018752)
I1210 02:24:34.575585 31653 net.cpp:137] Memory required for data: 906673600
I1210 02:24:34.575589 31653 layer_factory.hpp:77] Creating layer fc6
I1210 02:24:34.575598 31653 net.cpp:84] Creating Layer fc6
I1210 02:24:34.575601 31653 net.cpp:406] fc6 <- conv5_3
I1210 02:24:34.575609 31653 net.cpp:380] fc6 -> fc6
I1210 02:24:34.871513 31653 net.cpp:122] Setting up fc6
I1210 02:24:34.871583 31653 net.cpp:129] Top shape: 1 4096 51 72 (15040512)
I1210 02:24:34.871588 31653 net.cpp:137] Memory required for data: 966835648
I1210 02:24:34.871601 31653 layer_factory.hpp:77] Creating layer relu6
I1210 02:24:34.871626 31653 net.cpp:84] Creating Layer relu6
I1210 02:24:34.871634 31653 net.cpp:406] relu6 <- fc6
I1210 02:24:34.871642 31653 net.cpp:367] relu6 -> fc6 (in-place)
I1210 02:24:34.872319 31653 net.cpp:122] Setting up relu6
I1210 02:24:34.872345 31653 net.cpp:129] Top shape: 1 4096 51 72 (15040512)
I1210 02:24:34.872349 31653 net.cpp:137] Memory required for data: 1026997696
I1210 02:24:34.872352 31653 layer_factory.hpp:77] Creating layer drop6
I1210 02:24:34.872364 31653 net.cpp:84] Creating Layer drop6
I1210 02:24:34.872366 31653 net.cpp:406] drop6 <- fc6
I1210 02:24:34.872371 31653 net.cpp:367] drop6 -> fc6 (in-place)
I1210 02:24:34.872411 31653 net.cpp:122] Setting up drop6
I1210 02:24:34.872429 31653 net.cpp:129] Top shape: 1 4096 51 72 (15040512)
I1210 02:24:34.872432 31653 net.cpp:137] Memory required for data: 1087159744
I1210 02:24:34.872436 31653 layer_factory.hpp:77] Creating layer fc7
I1210 02:24:34.872452 31653 net.cpp:84] Creating Layer fc7
I1210 02:24:34.872454 31653 net.cpp:406] fc7 <- fc6
I1210 02:24:34.872462 31653 net.cpp:380] fc7 -> fc7
I1210 02:24:34.925954 31653 net.cpp:122] Setting up fc7
I1210 02:24:34.926009 31653 net.cpp:129] Top shape: 1 4096 51 72 (15040512)
I1210 02:24:34.926015 31653 net.cpp:137] Memory required for data: 1147321792
I1210 02:24:34.926028 31653 layer_factory.hpp:77] Creating layer relu7
I1210 02:24:34.926043 31653 net.cpp:84] Creating Layer relu7
I1210 02:24:34.926048 31653 net.cpp:406] relu7 <- fc7
I1210 02:24:34.926059 31653 net.cpp:367] relu7 -> fc7 (in-place)
I1210 02:24:34.926591 31653 net.cpp:122] Setting up relu7
I1210 02:24:34.926614 31653 net.cpp:129] Top shape: 1 4096 51 72 (15040512)
I1210 02:24:34.926618 31653 net.cpp:137] Memory required for data: 1207483840
I1210 02:24:34.926622 31653 layer_factory.hpp:77] Creating layer drop7
I1210 02:24:34.926630 31653 net.cpp:84] Creating Layer drop7
I1210 02:24:34.926633 31653 net.cpp:406] drop7 <- fc7
I1210 02:24:34.926640 31653 net.cpp:367] drop7 -> fc7 (in-place)
I1210 02:24:34.926676 31653 net.cpp:122] Setting up drop7
I1210 02:24:34.926717 31653 net.cpp:129] Top shape: 1 4096 51 72 (15040512)
I1210 02:24:34.926719 31653 net.cpp:137] Memory required for data: 1267645888
I1210 02:24:34.926723 31653 layer_factory.hpp:77] Creating layer score_fr
I1210 02:24:34.926734 31653 net.cpp:84] Creating Layer score_fr
I1210 02:24:34.926738 31653 net.cpp:406] score_fr <- fc7
I1210 02:24:34.926745 31653 net.cpp:380] score_fr -> score_fr
I1210 02:24:34.929137 31653 net.cpp:122] Setting up score_fr
I1210 02:24:34.929170 31653 net.cpp:129] Top shape: 1 21 51 72 (77112)
I1210 02:24:34.929175 31653 net.cpp:137] Memory required for data: 1267954336
I1210 02:24:34.929183 31653 layer_factory.hpp:77] Creating layer upscore
I1210 02:24:34.929193 31653 net.cpp:84] Creating Layer upscore
I1210 02:24:34.929196 31653 net.cpp:406] upscore <- score_fr
I1210 02:24:34.929201 31653 net.cpp:380] upscore -> upscore
I1210 02:24:34.929543 31653 net.cpp:122] Setting up upscore
I1210 02:24:34.929564 31653 net.cpp:129] Top shape: 1 21 416 584 (5101824)
I1210 02:24:34.929567 31653 net.cpp:137] Memory required for data: 1288361632
I1210 02:24:34.929584 31653 layer_factory.hpp:77] Creating layer score
I1210 02:24:34.929591 31653 net.cpp:84] Creating Layer score
I1210 02:24:34.929594 31653 net.cpp:406] score <- upscore
I1210 02:24:34.929599 31653 net.cpp:406] score <- data_data_0_split_1
I1210 02:24:34.929603 31653 net.cpp:380] score -> score
I1210 02:24:34.929636 31653 net.cpp:122] Setting up score
I1210 02:24:34.929653 31653 net.cpp:129] Top shape: 1 21 334 500 (3507000)
I1210 02:24:34.929656 31653 net.cpp:137] Memory required for data: 1302389632
I1210 02:24:34.929659 31653 layer_factory.hpp:77] Creating layer loss
I1210 02:24:34.929669 31653 net.cpp:84] Creating Layer loss
I1210 02:24:34.929672 31653 net.cpp:406] loss <- score
I1210 02:24:34.929677 31653 net.cpp:406] loss <- label
I1210 02:24:34.929680 31653 net.cpp:380] loss -> loss
I1210 02:24:34.929692 31653 layer_factory.hpp:77] Creating layer loss
…
I1210 02:24:34.938530 31653 net.cpp:255] Network initialization done.
I1210 02:24:34.939383 31653 solver.cpp:172] Creating test net (#0) specified by test_net file: val.prototxt
I1210 02:24:34.939646 31653 net.cpp:51] Initializing net from parameters: 
state {
  phase: TEST
}
layer {
  name: "data"
  type: "Python"
  top: "data"
  top: "label"
  python_param {
    module: "data_layer"
    layer: "ValidDataLayer"
    param_str: "{\'mode\': \'val\', \'mean\': (104.00699, 116.66877, 122.67892), \'seed\': 1337, \'data_dir\': \'/jet/prs/workspace/VOCdevkit/VOC2012\'}"
  }
}
layer {
  name: "conv1_1"
  type: "Convolution"
  bottom: "data"
  top: "conv1_1"
  param {
    lr_mult: 1
    decay_mult: 1
  }
  param {
    lr_mult: 2
    decay_mult: 0
  }
  convolution_param {
    num_output: 64
    pad: 100
    kernel_size: 3
    stride: 1
  }
}
layer {
  name: "relu1_1"
  type: "ReLU"
  bottom: "conv1_1"
  top: "conv1_1"
}
layer {
  name: "conv1_2"
  type: "Convolution"
  bottom: "conv1_1"
  top: "conv1_2"
  param {
    lr_mult: 1
    decay_mult: 1
  }
  param {
    lr_mult: 2
    decay_mult: 0
  }
  convolution_param {
    num_output: 64
    pad: 1
    kernel_size: 3
    stride: 1
  }
}
layer {
  name: "relu1_2"
  type: "ReLU"
  bottom: "conv1_2"
  top: "conv1_2"
}
layer {
  name: "pool1"
  type: "Pooling"
  bottom: "conv1_2"
  top: "pool1"
  pooling_param {
    pool: MAX
    kernel_size: 2
    stride: 2
  }
}
layer {
  name: "conv2_1"
  type: "Convolution"
  bottom: "pool1"
  top: "conv2_1"
  param {
    lr_mult: 1
    decay_mult: 1
  }
  param {
    lr_mult: 2
    decay_mult: 0
  }
  convolution_param {
    num_output: 128
    pad: 1
    kernel_size: 3
    stride: 1
  }
}
layer {
  name: "relu2_1"
  type: "ReLU"
  bottom: "conv2_1"
  top: "conv2_1"
}
layer {
  name: "conv2_2"
  type: "Convolution"
  bottom: "conv2_1"
  top: "conv2_2"
  param {
    lr_mult: 1
    decay_mult: 1
  }
  param {
    lr_mult: 2
    decay_mult: 0
  }
  convolution_param {
    num_output: 128
    pad: 1
    kernel_size: 3
    stride: 1
  }
}
layer {
  name: "relu2_2"
  type: "ReLU"
  bottom: "conv2_2"
  top: "conv2_2"
}
layer {
  name: "pool2"
  type: "Pooling"
  bottom: "conv2_2"
  top: "pool2"
  pooling_param {
    pool: MAX
    kernel_size: 2
    stride: 2
  }
}
layer {
  name: "conv3_1"
  type: "Convolution"
  bottom: "pool2"
  top: "conv3_1"
  param {
    lr_mult: 1
    decay_mult: 1
  }
  param {
    lr_mult: 2
    decay_mult: 0
  }
  convolution_param {
    num_output: 256
    pad: 1
    kernel_size: 3
    stride: 1
  }
}
layer {
  name: "relu3_1"
  type: "ReLU"
  bottom: "conv3_1"
  top: "conv3_1"
}
layer {
  name: "conv3_2"
  type: "Convolution"
  bottom: "conv3_1"
  top: "conv3_2"
  param {
    lr_mult: 1
    decay_mult: 1
  }
  param {
    lr_mult: 2
    decay_mult: 0
  }
  convolution_param {
    num_output: 256
    pad: 1
    kernel_size: 3
    stride: 1
  }
}
layer {
  name: "relu3_2"
  type: "ReLU"
  bottom: "conv3_2"
  top: "conv3_2"
}
layer {
  name: "conv3_3"
  type: "Convolution"
  bottom: "conv3_2"
  top: "conv3_3"
  param {
    lr_mult: 1
    decay_mult: 1
  }
  param {
    lr_mult: 2
    decay_mult: 0
  }
  convolution_param {
    num_output: 256
    pad: 1
    kernel_size: 3
    stride: 1
  }
}
layer {
  name: "relu3_3"
  type: "ReLU"
  bottom: "conv3_3"
  top: "conv3_3"
}
layer {
  name: "pool3"
  type: "Pooling"
  bottom: "conv3_3"
  top: "pool3"
  pooling_param {
    pool: MAX
    kernel_size: 2
    stride: 2
  }
}
layer {
  name: "conv4_1"
  type: "Convolution"
  bottom: "pool3"
  top: "conv4_1"
  param {
    lr_mult: 1
    decay_mult: 1
  }
  param {
    lr_mult: 2
    decay_mult: 0
  }
  convolution_param {
    num_output: 512
    pad: 1
    kernel_size: 3
    stride: 1
  }
}
layer {
  name: "relu4_1"
  type: "ReLU"
  bottom: "conv4_1"
  top: "conv4_1"
}
layer {
  name: "conv4_2"
  type: "Convolution"
  bottom: "conv4_1"
  top: "conv4_2"
  param {
    lr_mult: 1
    decay_mult: 1
  }
  param {
    lr_mult: 2
    decay_mult: 0
  }
  convolution_param {
    num_output: 512
    pad: 1
    kernel_size: 3
    stride: 1
  }
}
layer {
  name: "relu4_2"
  type: "ReLU"
  bottom: "conv4_2"
  top: "conv4_2"
}
layer {
  name: "conv4_3"
  type: "Convolution"
  bottom: "conv4_2"
  top: "conv4_3"
  param {
    lr_mult: 1
    decay_mult: 1
  }
  param {
    lr_mult: 2
    decay_mult: 0
  }
  convolution_param {
    num_output: 512
    pad: 1
    kernel_size: 3
    stride: 1
  }
}
layer {
  name: "relu4_3"
  type: "ReLU"
  bottom: "conv4_3"
  top: "conv4_3"
}
layer {
  name: "conv5_1"
  type: "Convolution"
  bottom: "conv4_3"
  top: "conv5_1"
  param {
    lr_mult: 1
    decay_mult: 1
  }
  param {
    lr_mult: 2
    decay_mult: 0
  }
  convolution_param {
    num_output: 512
    pad: 2
    kernel_size: 3
    dilation: 2
  }
}
layer {
  name: "relu5_1"
  type: "ReLU"
  bottom: "conv5_1"
  top: "conv5_1"
}
layer {
  name: "conv5_2"
  type: "Convolution"
  bottom: "conv5_1"
  top: "conv5_2"
  param {
    lr_mult: 1
    decay_mult: 1
  }
  param {
    lr_mult: 2
    decay_mult: 0
  }
  convolution_param {
    num_output: 512
    pad: 2
    kernel_size: 3
    dilation: 2
  }
}
layer {
  name: "relu5_2"
  type: "ReLU"
  bottom: "conv5_2"
  top: "conv5_2"
}
layer {
  name: "conv5_3"
  type: "Convolution"
  bottom: "conv5_2"
  top: "conv5_3"
  param {
    lr_mult: 1
    decay_mult: 1
  }
  param {
    lr_mult: 2
    decay_mult: 0
  }
  convolution_param {
    num_output: 512
    pad: 2
    kernel_size: 3
    dilation: 2
  }
}
layer {
  name: "relu5_3"
  type: "ReLU"
  bottom: "conv5_3"
  top: "conv5_3"
}
layer {
  name: "fc6"
  type: "Convolution"
  bottom: "conv5_3"
  top: "fc6"
  param {
    lr_mult: 1
    decay_mult: 1
  }
  param {
    lr_mult: 2
    decay_mult: 0
  }
  convolution_param {
    num_output: 4096
    pad: 4
    kernel_size: 7
    dilation: 4
  }
}
layer {
  name: "relu6"
  type: "ReLU"
  bottom: "fc6"
  top: "fc6"
}
layer {
  name: "drop6"
  type: "Dropout"
  bottom: "fc6"
  top: "fc6"
  dropout_param {
    dropout_ratio: 0.5
  }
}
layer {
  name: "fc7"
  type: "Convolution"
  bottom: "fc6"
  top: "fc7"
  param {
    lr_mult: 1
    decay_mult: 1
  }
  param {
    lr_mult: 2
    decay_mult: 0
  }
  convolution_param {
    num_output: 4096
    pad: 0
    kernel_size: 1
    stride: 1
  }
}
layer {
  name: "relu7"
  type: "ReLU"
  bottom: "fc7"
  top: "fc7"
}
layer {
  name: "drop7"
  type: "Dropout"
  bottom: "fc7"
  top: "fc7"
  dropout_param {
    dropout_ratio: 0.5
  }
}
layer {
  name: "score_fr"
  type: "Convolution"
  bottom: "fc7"
  top: "score_fr"
  param {
    lr_mult: 1
    decay_mult: 1
  }
  param {
    lr_mult: 2
    decay_mult: 0
  }
  convolution_param {
    num_output: 21
    pad: 0
    kernel_size: 1
    stride: 1
  }
}
layer {
  name: "upscore"
  type: "Deconvolution"
  bottom: "score_fr"
  top: "upscore"
  param {
    lr_mult: 0
  }
  convolution_param {
    num_output: 21
    bias_term: false
    pad: 0
    kernel_size: 16
    stride: 8
  }
}
layer {
  name: "score"
  type: "Crop"
  bottom: "upscore"
  bottom: "data"
  top: "score"
  crop_param {
    axis: 2
    offset: 39
  }
}
layer {
  name: "loss"
  type: "SoftmaxWithLoss"
  bottom: "score"
  bottom: "label"
  top: "loss"
  loss_param {
    ignore_label: 255
    normalize: false
  }
}
I1210 02:24:34.939797 31653 layer_factory.hpp:77] Creating layer data
I1210 02:24:34.939890 31653 net.cpp:84] Creating Layer data
I1210 02:24:34.939896 31653 net.cpp:380] data -> data
I1210 02:24:34.939903 31653 net.cpp:380] data -> label
I1210 02:24:34.950433 31653 net.cpp:122] Setting up data
I1210 02:24:34.950466 31653 net.cpp:129] Top shape: 1 3 366 500 (549000)
I1210 02:24:34.950472 31653 net.cpp:129] Top shape: 1 1 366 500 (183000)
I1210 02:24:34.950475 31653 net.cpp:137] Memory required for data: 2928000
I1210 02:24:34.950479 31653 layer_factory.hpp:77] Creating layer data_data_0_split
I1210 02:24:34.950489 31653 net.cpp:84] Creating Layer data_data_0_split
I1210 02:24:34.950491 31653 net.cpp:406] data_data_0_split <- data
I1210 02:24:34.950497 31653 net.cpp:380] data_data_0_split -> data_data_0_split_0
I1210 02:24:34.950505 31653 net.cpp:380] data_data_0_split -> data_data_0_split_1
I1210 02:24:34.950551 31653 net.cpp:122] Setting up data_data_0_split
I1210 02:24:34.950572 31653 net.cpp:129] Top shape: 1 3 366 500 (549000)
I1210 02:24:34.950575 31653 net.cpp:129] Top shape: 1 3 366 500 (549000)
I1210 02:24:34.950577 31653 net.cpp:137] Memory required for data: 7320000
I1210 02:24:34.950580 31653 layer_factory.hpp:77] Creating layer conv1_1
I1210 02:24:34.950590 31653 net.cpp:84] Creating Layer conv1_1
I1210 02:24:34.950595 31653 net.cpp:406] conv1_1 <- data_data_0_split_0
I1210 02:24:34.950599 31653 net.cpp:380] conv1_1 -> conv1_1
I1210 02:24:34.954744 31653 net.cpp:122] Setting up conv1_1
I1210 02:24:34.954779 31653 net.cpp:129] Top shape: 1 64 564 698 (25195008)
I1210 02:24:34.954785 31653 net.cpp:137] Memory required for data: 108100032
I1210 02:24:34.954797 31653 layer_factory.hpp:77] Creating layer relu1_1
I1210 02:24:34.954805 31653 net.cpp:84] Creating Layer relu1_1
I1210 02:24:34.954809 31653 net.cpp:406] relu1_1 <- conv1_1
I1210 02:24:34.954813 31653 net.cpp:367] relu1_1 -> conv1_1 (in-place)
I1210 02:24:34.955251 31653 net.cpp:122] Setting up relu1_1
I1210 02:24:34.955276 31653 net.cpp:129] Top shape: 1 64 564 698 (25195008)
I1210 02:24:34.955287 31653 net.cpp:137] Memory required for data: 208880064
I1210 02:24:34.955291 31653 layer_factory.hpp:77] Creating layer conv1_2
I1210 02:24:34.955303 31653 net.cpp:84] Creating Layer conv1_2
I1210 02:24:34.955308 31653 net.cpp:406] conv1_2 <- conv1_1
I1210 02:24:34.955314 31653 net.cpp:380] conv1_2 -> conv1_2
I1210 02:24:34.958820 31653 net.cpp:122] Setting up conv1_2
I1210 02:24:34.958851 31653 net.cpp:129] Top shape: 1 64 564 698 (25195008)
I1210 02:24:34.958855 31653 net.cpp:137] Memory required for data: 309660096
I1210 02:24:34.958868 31653 layer_factory.hpp:77] Creating layer relu1_2
I1210 02:24:34.958874 31653 net.cpp:84] Creating Layer relu1_2
I1210 02:24:34.958878 31653 net.cpp:406] relu1_2 <- conv1_2
I1210 02:24:34.958884 31653 net.cpp:367] relu1_2 -> conv1_2 (in-place)
I1210 02:24:34.959409 31653 net.cpp:122] Setting up relu1_2
I1210 02:24:34.959435 31653 net.cpp:129] Top shape: 1 64 564 698 (25195008)
I1210 02:24:34.959439 31653 net.cpp:137] Memory required for data: 410440128
I1210 02:24:34.959442 31653 layer_factory.hpp:77] Creating layer pool1
I1210 02:24:34.959452 31653 net.cpp:84] Creating Layer pool1
I1210 02:24:34.959455 31653 net.cpp:406] pool1 <- conv1_2
I1210 02:24:34.959462 31653 net.cpp:380] pool1 -> pool1
I1210 02:24:34.959522 31653 net.cpp:122] Setting up pool1
I1210 02:24:34.959539 31653 net.cpp:129] Top shape: 1 64 282 349 (6298752)
I1210 02:24:34.959542 31653 net.cpp:137] Memory required for data: 435635136
I1210 02:24:34.959545 31653 layer_factory.hpp:77] Creating layer conv2_1
I1210 02:24:34.959555 31653 net.cpp:84] Creating Layer conv2_1
I1210 02:24:34.959558 31653 net.cpp:406] conv2_1 <- pool1
I1210 02:24:34.959563 31653 net.cpp:380] conv2_1 -> conv2_1
I1210 02:24:34.962313 31653 net.cpp:122] Setting up conv2_1
I1210 02:24:34.962342 31653 net.cpp:129] Top shape: 1 128 282 349 (12597504)
I1210 02:24:34.962345 31653 net.cpp:137] Memory required for data: 486025152
I1210 02:24:34.962355 31653 layer_factory.hpp:77] Creating layer relu2_1
I1210 02:24:34.962365 31653 net.cpp:84] Creating Layer relu2_1
I1210 02:24:34.962368 31653 net.cpp:406] relu2_1 <- conv2_1
I1210 02:24:34.962374 31653 net.cpp:367] relu2_1 -> conv2_1 (in-place)
I1210 02:24:34.963260 31653 net.cpp:122] Setting up relu2_1
I1210 02:24:34.963296 31653 net.cpp:129] Top shape: 1 128 282 349 (12597504)
I1210 02:24:34.963301 31653 net.cpp:137] Memory required for data: 536415168
I1210 02:24:34.963304 31653 layer_factory.hpp:77] Creating layer conv2_2
I1210 02:24:34.963315 31653 net.cpp:84] Creating Layer conv2_2
I1210 02:24:34.963318 31653 net.cpp:406] conv2_2 <- conv2_1
I1210 02:24:34.963325 31653 net.cpp:380] conv2_2 -> conv2_2
I1210 02:24:34.966213 31653 net.cpp:122] Setting up conv2_2
I1210 02:24:34.966243 31653 net.cpp:129] Top shape: 1 128 282 349 (12597504)
I1210 02:24:34.966248 31653 net.cpp:137] Memory required for data: 586805184
I1210 02:24:34.966254 31653 layer_factory.hpp:77] Creating layer relu2_2
I1210 02:24:34.966261 31653 net.cpp:84] Creating Layer relu2_2
I1210 02:24:34.966267 31653 net.cpp:406] relu2_2 <- conv2_2
I1210 02:24:34.966272 31653 net.cpp:367] relu2_2 -> conv2_2 (in-place)
I1210 02:24:34.967156 31653 net.cpp:122] Setting up relu2_2
I1210 02:24:34.967182 31653 net.cpp:129] Top shape: 1 128 282 349 (12597504)
I1210 02:24:34.967186 31653 net.cpp:137] Memory required for data: 637195200
I1210 02:24:34.967190 31653 layer_factory.hpp:77] Creating layer pool2
I1210 02:24:34.967197 31653 net.cpp:84] Creating Layer pool2
I1210 02:24:34.967201 31653 net.cpp:406] pool2 <- conv2_2
I1210 02:24:34.967208 31653 net.cpp:380] pool2 -> pool2
I1210 02:24:34.967267 31653 net.cpp:122] Setting up pool2
I1210 02:24:34.967293 31653 net.cpp:129] Top shape: 1 128 141 175 (3158400)
I1210 02:24:34.967296 31653 net.cpp:137] Memory required for data: 649828800
I1210 02:24:34.967299 31653 layer_factory.hpp:77] Creating layer conv3_1
I1210 02:24:34.967311 31653 net.cpp:84] Creating Layer conv3_1
I1210 02:24:34.967316 31653 net.cpp:406] conv3_1 <- pool2
I1210 02:24:34.967321 31653 net.cpp:380] conv3_1 -> conv3_1
I1210 02:24:34.971397 31653 net.cpp:122] Setting up conv3_1
I1210 02:24:34.971427 31653 net.cpp:129] Top shape: 1 256 141 175 (6316800)
I1210 02:24:34.971432 31653 net.cpp:137] Memory required for data: 675096000
I1210 02:24:34.971441 31653 layer_factory.hpp:77] Creating layer relu3_1
I1210 02:24:34.971449 31653 net.cpp:84] Creating Layer relu3_1
I1210 02:24:34.971453 31653 net.cpp:406] relu3_1 <- conv3_1
I1210 02:24:34.971459 31653 net.cpp:367] relu3_1 -> conv3_1 (in-place)
I1210 02:24:34.971964 31653 net.cpp:122] Setting up relu3_1
I1210 02:24:34.971990 31653 net.cpp:129] Top shape: 1 256 141 175 (6316800)
I1210 02:24:34.971994 31653 net.cpp:137] Memory required for data: 700363200
I1210 02:24:34.971997 31653 layer_factory.hpp:77] Creating layer conv3_2
I1210 02:24:34.972009 31653 net.cpp:84] Creating Layer conv3_2
I1210 02:24:34.972012 31653 net.cpp:406] conv3_2 <- conv3_1
I1210 02:24:34.972018 31653 net.cpp:380] conv3_2 -> conv3_2
I1210 02:24:34.976364 31653 net.cpp:122] Setting up conv3_2
I1210 02:24:34.976394 31653 net.cpp:129] Top shape: 1 256 141 175 (6316800)
I1210 02:24:34.976399 31653 net.cpp:137] Memory required for data: 725630400
I1210 02:24:34.976406 31653 layer_factory.hpp:77] Creating layer relu3_2
I1210 02:24:34.976413 31653 net.cpp:84] Creating Layer relu3_2
I1210 02:24:34.976416 31653 net.cpp:406] relu3_2 <- conv3_2
I1210 02:24:34.976423 31653 net.cpp:367] relu3_2 -> conv3_2 (in-place)
I1210 02:24:34.976934 31653 net.cpp:122] Setting up relu3_2
I1210 02:24:34.976961 31653 net.cpp:129] Top shape: 1 256 141 175 (6316800)
I1210 02:24:34.976964 31653 net.cpp:137] Memory required for data: 750897600
I1210 02:24:34.976969 31653 layer_factory.hpp:77] Creating layer conv3_3
I1210 02:24:34.976979 31653 net.cpp:84] Creating Layer conv3_3
I1210 02:24:34.976984 31653 net.cpp:406] conv3_3 <- conv3_2
I1210 02:24:34.976989 31653 net.cpp:380] conv3_3 -> conv3_3
I1210 02:24:34.981344 31653 net.cpp:122] Setting up conv3_3
I1210 02:24:34.981371 31653 net.cpp:129] Top shape: 1 256 141 175 (6316800)
I1210 02:24:34.981375 31653 net.cpp:137] Memory required for data: 776164800
I1210 02:24:34.981382 31653 layer_factory.hpp:77] Creating layer relu3_3
I1210 02:24:34.981389 31653 net.cpp:84] Creating Layer relu3_3
I1210 02:24:34.981393 31653 net.cpp:406] relu3_3 <- conv3_3
I1210 02:24:34.981400 31653 net.cpp:367] relu3_3 -> conv3_3 (in-place)
I1210 02:24:34.982293 31653 net.cpp:122] Setting up relu3_3
I1210 02:24:34.982321 31653 net.cpp:129] Top shape: 1 256 141 175 (6316800)
I1210 02:24:34.982324 31653 net.cpp:137] Memory required for data: 801432000
I1210 02:24:34.982327 31653 layer_factory.hpp:77] Creating layer pool3
I1210 02:24:34.982336 31653 net.cpp:84] Creating Layer pool3
I1210 02:24:34.982338 31653 net.cpp:406] pool3 <- conv3_3
I1210 02:24:34.982344 31653 net.cpp:380] pool3 -> pool3
I1210 02:24:34.982406 31653 net.cpp:122] Setting up pool3
I1210 02:24:34.982425 31653 net.cpp:129] Top shape: 1 256 71 88 (1599488)
I1210 02:24:34.982429 31653 net.cpp:137] Memory required for data: 807829952
I1210 02:24:34.982431 31653 layer_factory.hpp:77] Creating layer conv4_1
I1210 02:24:34.982441 31653 net.cpp:84] Creating Layer conv4_1
I1210 02:24:34.982445 31653 net.cpp:406] conv4_1 <- pool3
I1210 02:24:34.982452 31653 net.cpp:380] conv4_1 -> conv4_1
I1210 02:24:34.988003 31653 net.cpp:122] Setting up conv4_1
I1210 02:24:34.988037 31653 net.cpp:129] Top shape: 1 512 71 88 (3198976)
I1210 02:24:34.988042 31653 net.cpp:137] Memory required for data: 820625856
I1210 02:24:34.988050 31653 layer_factory.hpp:77] Creating layer relu4_1
I1210 02:24:34.988057 31653 net.cpp:84] Creating Layer relu4_1
I1210 02:24:34.988060 31653 net.cpp:406] relu4_1 <- conv4_1
I1210 02:24:34.988066 31653 net.cpp:367] relu4_1 -> conv4_1 (in-place)
I1210 02:24:34.988606 31653 net.cpp:122] Setting up relu4_1
I1210 02:24:34.988633 31653 net.cpp:129] Top shape: 1 512 71 88 (3198976)
I1210 02:24:34.988636 31653 net.cpp:137] Memory required for data: 833421760
I1210 02:24:34.988641 31653 layer_factory.hpp:77] Creating layer conv4_2
I1210 02:24:34.988649 31653 net.cpp:84] Creating Layer conv4_2
I1210 02:24:34.988656 31653 net.cpp:406] conv4_2 <- conv4_1
I1210 02:24:34.988662 31653 net.cpp:380] conv4_2 -> conv4_2
I1210 02:24:34.996326 31653 net.cpp:122] Setting up conv4_2
I1210 02:24:34.996361 31653 net.cpp:129] Top shape: 1 512 71 88 (3198976)
I1210 02:24:34.996366 31653 net.cpp:137] Memory required for data: 846217664
I1210 02:24:34.996378 31653 layer_factory.hpp:77] Creating layer relu4_2
I1210 02:24:34.996387 31653 net.cpp:84] Creating Layer relu4_2
I1210 02:24:34.996392 31653 net.cpp:406] relu4_2 <- conv4_2
I1210 02:24:34.996397 31653 net.cpp:367] relu4_2 -> conv4_2 (in-place)
I1210 02:24:34.997057 31653 net.cpp:122] Setting up relu4_2
I1210 02:24:34.997081 31653 net.cpp:129] Top shape: 1 512 71 88 (3198976)
I1210 02:24:34.997086 31653 net.cpp:137] Memory required for data: 859013568
I1210 02:24:34.997089 31653 layer_factory.hpp:77] Creating layer conv4_3
I1210 02:24:34.997100 31653 net.cpp:84] Creating Layer conv4_3
I1210 02:24:34.997103 31653 net.cpp:406] conv4_3 <- conv4_2
I1210 02:24:34.997124 31653 net.cpp:380] conv4_3 -> conv4_3
I1210 02:24:35.004741 31653 net.cpp:122] Setting up conv4_3
I1210 02:24:35.004777 31653 net.cpp:129] Top shape: 1 512 71 88 (3198976)
I1210 02:24:35.004782 31653 net.cpp:137] Memory required for data: 871809472
I1210 02:24:35.004791 31653 layer_factory.hpp:77] Creating layer relu4_3
I1210 02:24:35.004799 31653 net.cpp:84] Creating Layer relu4_3
I1210 02:24:35.004803 31653 net.cpp:406] relu4_3 <- conv4_3
I1210 02:24:35.004808 31653 net.cpp:367] relu4_3 -> conv4_3 (in-place)
I1210 02:24:35.005759 31653 net.cpp:122] Setting up relu4_3
I1210 02:24:35.005792 31653 net.cpp:129] Top shape: 1 512 71 88 (3198976)
I1210 02:24:35.005796 31653 net.cpp:137] Memory required for data: 884605376
I1210 02:24:35.005800 31653 layer_factory.hpp:77] Creating layer conv5_1
I1210 02:24:35.005810 31653 net.cpp:84] Creating Layer conv5_1
I1210 02:24:35.005815 31653 net.cpp:406] conv5_1 <- conv4_3
I1210 02:24:35.005822 31653 net.cpp:380] conv5_1 -> conv5_1
I1210 02:24:35.011340 31653 net.cpp:122] Setting up conv5_1
I1210 02:24:35.011371 31653 net.cpp:129] Top shape: 1 512 71 88 (3198976)
I1210 02:24:35.011375 31653 net.cpp:137] Memory required for data: 897401280
I1210 02:24:35.011382 31653 layer_factory.hpp:77] Creating layer relu5_1
I1210 02:24:35.011390 31653 net.cpp:84] Creating Layer relu5_1
I1210 02:24:35.011396 31653 net.cpp:406] relu5_1 <- conv5_1
I1210 02:24:35.011401 31653 net.cpp:367] relu5_1 -> conv5_1 (in-place)
I1210 02:24:35.011930 31653 net.cpp:122] Setting up relu5_1
I1210 02:24:35.011955 31653 net.cpp:129] Top shape: 1 512 71 88 (3198976)
I1210 02:24:35.011957 31653 net.cpp:137] Memory required for data: 910197184
I1210 02:24:35.011961 31653 layer_factory.hpp:77] Creating layer conv5_2
I1210 02:24:35.011972 31653 net.cpp:84] Creating Layer conv5_2
I1210 02:24:35.011976 31653 net.cpp:406] conv5_2 <- conv5_1
I1210 02:24:35.011981 31653 net.cpp:380] conv5_2 -> conv5_2
I1210 02:24:35.017518 31653 net.cpp:122] Setting up conv5_2
I1210 02:24:35.017547 31653 net.cpp:129] Top shape: 1 512 71 88 (3198976)
I1210 02:24:35.017551 31653 net.cpp:137] Memory required for data: 922993088
I1210 02:24:35.017558 31653 layer_factory.hpp:77] Creating layer relu5_2
I1210 02:24:35.017565 31653 net.cpp:84] Creating Layer relu5_2
I1210 02:24:35.017570 31653 net.cpp:406] relu5_2 <- conv5_2
I1210 02:24:35.017575 31653 net.cpp:367] relu5_2 -> conv5_2 (in-place)
I1210 02:24:35.018126 31653 net.cpp:122] Setting up relu5_2
I1210 02:24:35.018151 31653 net.cpp:129] Top shape: 1 512 71 88 (3198976)
I1210 02:24:35.018154 31653 net.cpp:137] Memory required for data: 935788992
I1210 02:24:35.018157 31653 layer_factory.hpp:77] Creating layer conv5_3
I1210 02:24:35.018169 31653 net.cpp:84] Creating Layer conv5_3
I1210 02:24:35.018172 31653 net.cpp:406] conv5_3 <- conv5_2
I1210 02:24:35.018178 31653 net.cpp:380] conv5_3 -> conv5_3
I1210 02:24:35.023839 31653 net.cpp:122] Setting up conv5_3
I1210 02:24:35.023874 31653 net.cpp:129] Top shape: 1 512 71 88 (3198976)
I1210 02:24:35.023880 31653 net.cpp:137] Memory required for data: 948584896
I1210 02:24:35.023886 31653 layer_factory.hpp:77] Creating layer relu5_3
I1210 02:24:35.023895 31653 net.cpp:84] Creating Layer relu5_3
I1210 02:24:35.023900 31653 net.cpp:406] relu5_3 <- conv5_3
I1210 02:24:35.023906 31653 net.cpp:367] relu5_3 -> conv5_3 (in-place)
I1210 02:24:35.024497 31653 net.cpp:122] Setting up relu5_3
I1210 02:24:35.024521 31653 net.cpp:129] Top shape: 1 512 71 88 (3198976)
I1210 02:24:35.024525 31653 net.cpp:137] Memory required for data: 961380800
I1210 02:24:35.024528 31653 layer_factory.hpp:77] Creating layer fc6
I1210 02:24:35.024540 31653 net.cpp:84] Creating Layer fc6
I1210 02:24:35.024544 31653 net.cpp:406] fc6 <- conv5_3
I1210 02:24:35.024551 31653 net.cpp:380] fc6 -> fc6
I1210 02:24:35.330042 31653 net.cpp:122] Setting up fc6
I1210 02:24:35.330101 31653 net.cpp:129] Top shape: 1 4096 55 72 (16220160)
I1210 02:24:35.330106 31653 net.cpp:137] Memory required for data: 1026261440
I1210 02:24:35.330127 31653 layer_factory.hpp:77] Creating layer relu6
I1210 02:24:35.330154 31653 net.cpp:84] Creating Layer relu6
I1210 02:24:35.330159 31653 net.cpp:406] relu6 <- fc6
I1210 02:24:35.330168 31653 net.cpp:367] relu6 -> fc6 (in-place)
I1210 02:24:35.331558 31653 net.cpp:122] Setting up relu6
I1210 02:24:35.331588 31653 net.cpp:129] Top shape: 1 4096 55 72 (16220160)
I1210 02:24:35.331591 31653 net.cpp:137] Memory required for data: 1091142080
I1210 02:24:35.331595 31653 layer_factory.hpp:77] Creating layer drop6
I1210 02:24:35.331602 31653 net.cpp:84] Creating Layer drop6
I1210 02:24:35.331606 31653 net.cpp:406] drop6 <- fc6
I1210 02:24:35.331614 31653 net.cpp:367] drop6 -> fc6 (in-place)
I1210 02:24:35.331655 31653 net.cpp:122] Setting up drop6
I1210 02:24:35.331672 31653 net.cpp:129] Top shape: 1 4096 55 72 (16220160)
I1210 02:24:35.331676 31653 net.cpp:137] Memory required for data: 1156022720
I1210 02:24:35.331678 31653 layer_factory.hpp:77] Creating layer fc7
I1210 02:24:35.331691 31653 net.cpp:84] Creating Layer fc7
I1210 02:24:35.331696 31653 net.cpp:406] fc7 <- fc6
I1210 02:24:35.331701 31653 net.cpp:380] fc7 -> fc7
I1210 02:24:35.385063 31653 net.cpp:122] Setting up fc7
I1210 02:24:35.385123 31653 net.cpp:129] Top shape: 1 4096 55 72 (16220160)
I1210 02:24:35.385129 31653 net.cpp:137] Memory required for data: 1220903360
I1210 02:24:35.385140 31653 layer_factory.hpp:77] Creating layer relu7
I1210 02:24:35.385154 31653 net.cpp:84] Creating Layer relu7
I1210 02:24:35.385159 31653 net.cpp:406] relu7 <- fc7
I1210 02:24:35.385167 31653 net.cpp:367] relu7 -> fc7 (in-place)
I1210 02:24:35.385700 31653 net.cpp:122] Setting up relu7
I1210 02:24:35.385730 31653 net.cpp:129] Top shape: 1 4096 55 72 (16220160)
I1210 02:24:35.385733 31653 net.cpp:137] Memory required for data: 1285784000
I1210 02:24:35.385736 31653 layer_factory.hpp:77] Creating layer drop7
I1210 02:24:35.385746 31653 net.cpp:84] Creating Layer drop7
I1210 02:24:35.385748 31653 net.cpp:406] drop7 <- fc7
I1210 02:24:35.385753 31653 net.cpp:367] drop7 -> fc7 (in-place)
I1210 02:24:35.385798 31653 net.cpp:122] Setting up drop7
I1210 02:24:35.385818 31653 net.cpp:129] Top shape: 1 4096 55 72 (16220160)
I1210 02:24:35.385821 31653 net.cpp:137] Memory required for data: 1350664640
I1210 02:24:35.385824 31653 layer_factory.hpp:77] Creating layer score_fr
I1210 02:24:35.385836 31653 net.cpp:84] Creating Layer score_fr
I1210 02:24:35.385840 31653 net.cpp:406] score_fr <- fc7
I1210 02:24:35.385848 31653 net.cpp:380] score_fr -> score_fr
I1210 02:24:35.388413 31653 net.cpp:122] Setting up score_fr
I1210 02:24:35.388443 31653 net.cpp:129] Top shape: 1 21 55 72 (83160)
I1210 02:24:35.388447 31653 net.cpp:137] Memory required for data: 1350997280
I1210 02:24:35.388455 31653 layer_factory.hpp:77] Creating layer upscore
I1210 02:24:35.388465 31653 net.cpp:84] Creating Layer upscore
I1210 02:24:35.388469 31653 net.cpp:406] upscore <- score_fr
I1210 02:24:35.388476 31653 net.cpp:380] upscore -> upscore
I1210 02:24:35.388833 31653 net.cpp:122] Setting up upscore
I1210 02:24:35.388854 31653 net.cpp:129] Top shape: 1 21 448 584 (5494272)
I1210 02:24:35.388859 31653 net.cpp:137] Memory required for data: 1372974368
I1210 02:24:35.388871 31653 layer_factory.hpp:77] Creating layer score
I1210 02:24:35.388878 31653 net.cpp:84] Creating Layer score
I1210 02:24:35.388882 31653 net.cpp:406] score <- upscore
I1210 02:24:35.388886 31653 net.cpp:406] score <- data_data_0_split_1
I1210 02:24:35.388893 31653 net.cpp:380] score -> score
I1210 02:24:35.388927 31653 net.cpp:122] Setting up score
I1210 02:24:35.388944 31653 net.cpp:129] Top shape: 1 21 366 500 (3843000)
I1210 02:24:35.388948 31653 net.cpp:137] Memory required for data: 1388346368
I1210 02:24:35.388950 31653 layer_factory.hpp:77] Creating layer loss
I1210 02:24:35.388958 31653 net.cpp:84] Creating Layer loss
I1210 02:24:35.388962 31653 net.cpp:406] loss <- score
I1210 02:24:35.388965 31653 net.cpp:406] loss <- label
I1210 02:24:35.388970 31653 net.cpp:380] loss -> loss
I1210 02:24:35.388979 31653 layer_factory.hpp:77] Creating layer loss
…
I1210 02:24:35.400817 31653 upgrade_proto.cpp:67] Attempting to upgrade input file specified using deprecated input fields: ../ilsvrc-nets/VGG_ILSVRC_16_layers_deploy.prototxt
I1210 02:24:35.400830 31653 upgrade_proto.cpp:70] Successfully upgraded file specified using deprecated input fields.
W1210 02:24:35.400832 31653 upgrade_proto.cpp:72] Note that future Caffe releases will only support input layers and not input fields.
I1210 02:24:35.401052 31653 net.cpp:51] Initializing net from parameters: 
name: "VGG_ILSVRC_16_layers"
state {
  phase: TEST
  level: 0
}
layer {
  name: "input"
  type: "Input"
  top: "data"
  input_param {
    shape {
      dim: 10
      dim: 3
      dim: 224
      dim: 224
    }
  }
}
layer {
  name: "conv1_1"
  type: "Convolution"
  bottom: "data"
  top: "conv1_1"
  convolution_param {
    num_output: 64
    pad: 1
    kernel_size: 3
  }
}
layer {
  name: "relu1_1"
  type: "ReLU"
  bottom: "conv1_1"
  top: "conv1_1"
}
layer {
  name: "conv1_2"
  type: "Convolution"
  bottom: "conv1_1"
  top: "conv1_2"
  convolution_param {
    num_output: 64
    pad: 1
    kernel_size: 3
  }
}
layer {
  name: "relu1_2"
  type: "ReLU"
  bottom: "conv1_2"
  top: "conv1_2"
}
layer {
  name: "pool1"
  type: "Pooling"
  bottom: "conv1_2"
  top: "pool1"
  pooling_param {
    pool: MAX
    kernel_size: 2
    stride: 2
  }
}
layer {
  name: "conv2_1"
  type: "Convolution"
  bottom: "pool1"
  top: "conv2_1"
  convolution_param {
    num_output: 128
    pad: 1
    kernel_size: 3
  }
}
layer {
  name: "relu2_1"
  type: "ReLU"
  bottom: "conv2_1"
  top: "conv2_1"
}
layer {
  name: "conv2_2"
  type: "Convolution"
  bottom: "conv2_1"
  top: "conv2_2"
  convolution_param {
    num_output: 128
    pad: 1
    kernel_size: 3
  }
}
layer {
  name: "relu2_2"
  type: "ReLU"
  bottom: "conv2_2"
  top: "conv2_2"
}
layer {
  name: "pool2"
  type: "Pooling"
  bottom: "conv2_2"
  top: "pool2"
  pooling_param {
    pool: MAX
    kernel_size: 2
    stride: 2
  }
}
layer {
  name: "conv3_1"
  type: "Convolution"
  bottom: "pool2"
  top: "conv3_1"
  convolution_param {
    num_output: 256
    pad: 1
    kernel_size: 3
  }
}
layer {
  name: "relu3_1"
  type: "ReLU"
  bottom: "conv3_1"
  top: "conv3_1"
}
layer {
  name: "conv3_2"
  type: "Convolution"
  bottom: "conv3_1"
  top: "conv3_2"
  convolution_param {
    num_output: 256
    pad: 1
    kernel_size: 3
  }
}
layer {
  name: "relu3_2"
  type: "ReLU"
  bottom: "conv3_2"
  top: "conv3_2"
}
layer {
  name: "conv3_3"
  type: "Convolution"
  bottom: "conv3_2"
  top: "conv3_3"
  convolution_param {
    num_output: 256
    pad: 1
    kernel_size: 3
  }
}
layer {
  name: "relu3_3"
  type: "ReLU"
  bottom: "conv3_3"
  top: "conv3_3"
}
layer {
  name: "pool3"
  type: "Pooling"
  bottom: "conv3_3"
  top: "pool3"
  pooling_param {
    pool: MAX
    kernel_size: 2
    stride: 2
  }
}
layer {
  name: "conv4_1"
  type: "Convolution"
  bottom: "pool3"
  top: "conv4_1"
  convolution_param {
    num_output: 512
    pad: 1
    kernel_size: 3
  }
}
layer {
  name: "relu4_1"
  type: "ReLU"
  bottom: "conv4_1"
  top: "conv4_1"
}
layer {
  name: "conv4_2"
  type: "Convolution"
  bottom: "conv4_1"
  top: "conv4_2"
  convolution_param {
    num_output: 512
    pad: 1
    kernel_size: 3
  }
}
layer {
  name: "relu4_2"
  type: "ReLU"
  bottom: "conv4_2"
  top: "conv4_2"
}
layer {
  name: "conv4_3"
  type: "Convolution"
  bottom: "conv4_2"
  top: "conv4_3"
  convolution_param {
    num_output: 512
    pad: 1
    kernel_size: 3
  }
}
layer {
  name: "relu4_3"
  type: "ReLU"
  bottom: "conv4_3"
  top: "conv4_3"
}
layer {
  name: "pool4"
  type: "Pooling"
  bottom: "conv4_3"
  top: "pool4"
  pooling_param {
    pool: MAX
    kernel_size: 2
    stride: 2
  }
}
layer {
  name: "conv5_1"
  type: "Convolution"
  bottom: "pool4"
  top: "conv5_1"
  convolution_param {
    num_output: 512
    pad: 1
    kernel_size: 3
  }
}
layer {
  name: "relu5_1"
  type: "ReLU"
  bottom: "conv5_1"
  top: "conv5_1"
}
layer {
  name: "conv5_2"
  type: "Convolution"
  bottom: "conv5_1"
  top: "conv5_2"
  convolution_param {
    num_output: 512
    pad: 1
    kernel_size: 3
  }
}
layer {
  name: "relu5_2"
  type: "ReLU"
  bottom: "conv5_2"
  top: "conv5_2"
}
layer {
  name: "conv5_3"
  type: "Convolution"
  bottom: "conv5_2"
  top: "conv5_3"
  convolution_param {
    num_output: 512
    pad: 1
    kernel_size: 3
  }
}
layer {
  name: "relu5_3"
  type: "ReLU"
  bottom: "conv5_3"
  top: "conv5_3"
}
layer {
  name: "pool5"
  type: "Pooling"
  bottom: "conv5_3"
  top: "pool5"
  pooling_param {
    pool: MAX
    kernel_size: 2
    stride: 2
  }
}
layer {
  name: "fc6"
  type: "InnerProduct"
  bottom: "pool5"
  top: "fc6"
  inner_product_param {
    num_output: 4096
  }
}
layer {
  name: "relu6"
  type: "ReLU"
  bottom: "fc6"
  top: "fc6"
}
layer {
  name: "drop6"
  type: "Dropout"
  bottom: "fc6"
  top: "fc6"
  dropout_param {
    dropout_ratio: 0.5
  }
}
layer {
  name: "fc7"
  type: "InnerProduct"
  bottom: "fc6"
  top: "fc7"
  inner_product_param {
    num_output: 4096
  }
}
layer {
  name: "relu7"
  type: "ReLU"
  bottom: "fc7"
  top: "fc7"
}
layer {
  name: "drop7"
  type: "Dropout"
  bottom: "fc7"
  top: "fc7"
  dropout_param {
    dropout_ratio: 0.5
  }
}
layer {
  name: "fc8"
  type: "InnerProduct"
  bottom: "fc7"
  top: "fc8"
  inner_product_param {
    num_output: 1000
  }
}
layer {
  name: "prob"
  type: "Softmax"
  bottom: "fc8"
  top: "prob"
}
I1210 02:24:35.401190 31653 layer_factory.hpp:77] Creating layer input
I1210 02:24:35.401201 31653 net.cpp:84] Creating Layer input
I1210 02:24:35.401206 31653 net.cpp:380] input -> data
I1210 02:24:35.401252 31653 net.cpp:122] Setting up input
I1210 02:24:35.401260 31653 net.cpp:129] Top shape: 10 3 224 224 (1505280)
I1210 02:24:35.401263 31653 net.cpp:137] Memory required for data: 6021120
I1210 02:24:35.401266 31653 layer_factory.hpp:77] Creating layer conv1_1
I1210 02:24:35.401273 31653 net.cpp:84] Creating Layer conv1_1
I1210 02:24:35.401278 31653 net.cpp:406] conv1_1 <- data
I1210 02:24:35.401291 31653 net.cpp:380] conv1_1 -> conv1_1
I1210 02:24:35.403921 31653 net.cpp:122] Setting up conv1_1
I1210 02:24:35.403952 31653 net.cpp:129] Top shape: 10 64 224 224 (32112640)
I1210 02:24:35.403956 31653 net.cpp:137] Memory required for data: 134471680
I1210 02:24:35.403966 31653 layer_factory.hpp:77] Creating layer relu1_1
I1210 02:24:35.403977 31653 net.cpp:84] Creating Layer relu1_1
I1210 02:24:35.403980 31653 net.cpp:406] relu1_1 <- conv1_1
I1210 02:24:35.403985 31653 net.cpp:367] relu1_1 -> conv1_1 (in-place)
I1210 02:24:35.404943 31653 net.cpp:122] Setting up relu1_1
I1210 02:24:35.404971 31653 net.cpp:129] Top shape: 10 64 224 224 (32112640)
I1210 02:24:35.404976 31653 net.cpp:137] Memory required for data: 262922240
I1210 02:24:35.404979 31653 layer_factory.hpp:77] Creating layer conv1_2
I1210 02:24:35.404989 31653 net.cpp:84] Creating Layer conv1_2
I1210 02:24:35.404992 31653 net.cpp:406] conv1_2 <- conv1_1
I1210 02:24:35.404999 31653 net.cpp:380] conv1_2 -> conv1_2
I1210 02:24:35.407485 31653 net.cpp:122] Setting up conv1_2
I1210 02:24:35.407515 31653 net.cpp:129] Top shape: 10 64 224 224 (32112640)
I1210 02:24:35.407519 31653 net.cpp:137] Memory required for data: 391372800
I1210 02:24:35.407527 31653 layer_factory.hpp:77] Creating layer relu1_2
I1210 02:24:35.407534 31653 net.cpp:84] Creating Layer relu1_2
I1210 02:24:35.407537 31653 net.cpp:406] relu1_2 <- conv1_2
I1210 02:24:35.407544 31653 net.cpp:367] relu1_2 -> conv1_2 (in-place)
I1210 02:24:35.408057 31653 net.cpp:122] Setting up relu1_2
I1210 02:24:35.408082 31653 net.cpp:129] Top shape: 10 64 224 224 (32112640)
I1210 02:24:35.408087 31653 net.cpp:137] Memory required for data: 519823360
I1210 02:24:35.408089 31653 layer_factory.hpp:77] Creating layer pool1
I1210 02:24:35.408097 31653 net.cpp:84] Creating Layer pool1
I1210 02:24:35.408100 31653 net.cpp:406] pool1 <- conv1_2
I1210 02:24:35.408107 31653 net.cpp:380] pool1 -> pool1
I1210 02:24:35.408180 31653 net.cpp:122] Setting up pool1
I1210 02:24:35.408201 31653 net.cpp:129] Top shape: 10 64 112 112 (8028160)
I1210 02:24:35.408205 31653 net.cpp:137] Memory required for data: 551936000
I1210 02:24:35.408207 31653 layer_factory.hpp:77] Creating layer conv2_1
I1210 02:24:35.408218 31653 net.cpp:84] Creating Layer conv2_1
I1210 02:24:35.408221 31653 net.cpp:406] conv2_1 <- pool1
I1210 02:24:35.408226 31653 net.cpp:380] conv2_1 -> conv2_1
I1210 02:24:35.411123 31653 net.cpp:122] Setting up conv2_1
I1210 02:24:35.411154 31653 net.cpp:129] Top shape: 10 128 112 112 (16056320)
I1210 02:24:35.411159 31653 net.cpp:137] Memory required for data: 616161280
I1210 02:24:35.411167 31653 layer_factory.hpp:77] Creating layer relu2_1
I1210 02:24:35.411175 31653 net.cpp:84] Creating Layer relu2_1
I1210 02:24:35.411177 31653 net.cpp:406] relu2_1 <- conv2_1
I1210 02:24:35.411182 31653 net.cpp:367] relu2_1 -> conv2_1 (in-place)
I1210 02:24:35.411720 31653 net.cpp:122] Setting up relu2_1
I1210 02:24:35.411746 31653 net.cpp:129] Top shape: 10 128 112 112 (16056320)
I1210 02:24:35.411751 31653 net.cpp:137] Memory required for data: 680386560
I1210 02:24:35.411753 31653 layer_factory.hpp:77] Creating layer conv2_2
I1210 02:24:35.411763 31653 net.cpp:84] Creating Layer conv2_2
I1210 02:24:35.411767 31653 net.cpp:406] conv2_2 <- conv2_1
I1210 02:24:35.411772 31653 net.cpp:380] conv2_2 -> conv2_2
I1210 02:24:35.415982 31653 net.cpp:122] Setting up conv2_2
I1210 02:24:35.416013 31653 net.cpp:129] Top shape: 10 128 112 112 (16056320)
I1210 02:24:35.416018 31653 net.cpp:137] Memory required for data: 744611840
I1210 02:24:35.416025 31653 layer_factory.hpp:77] Creating layer relu2_2
I1210 02:24:35.416033 31653 net.cpp:84] Creating Layer relu2_2
I1210 02:24:35.416035 31653 net.cpp:406] relu2_2 <- conv2_2
I1210 02:24:35.416040 31653 net.cpp:367] relu2_2 -> conv2_2 (in-place)
I1210 02:24:35.416997 31653 net.cpp:122] Setting up relu2_2
I1210 02:24:35.417042 31653 net.cpp:129] Top shape: 10 128 112 112 (16056320)
I1210 02:24:35.417047 31653 net.cpp:137] Memory required for data: 808837120
I1210 02:24:35.417050 31653 layer_factory.hpp:77] Creating layer pool2
I1210 02:24:35.417057 31653 net.cpp:84] Creating Layer pool2
I1210 02:24:35.417062 31653 net.cpp:406] pool2 <- conv2_2
I1210 02:24:35.417070 31653 net.cpp:380] pool2 -> pool2
I1210 02:24:35.417150 31653 net.cpp:122] Setting up pool2
I1210 02:24:35.417171 31653 net.cpp:129] Top shape: 10 128 56 56 (4014080)
I1210 02:24:35.417173 31653 net.cpp:137] Memory required for data: 824893440
I1210 02:24:35.417176 31653 layer_factory.hpp:77] Creating layer conv3_1
I1210 02:24:35.417183 31653 net.cpp:84] Creating Layer conv3_1
I1210 02:24:35.417186 31653 net.cpp:406] conv3_1 <- pool2
I1210 02:24:35.417192 31653 net.cpp:380] conv3_1 -> conv3_1
I1210 02:24:35.420131 31653 net.cpp:122] Setting up conv3_1
I1210 02:24:35.420161 31653 net.cpp:129] Top shape: 10 256 56 56 (8028160)
I1210 02:24:35.420166 31653 net.cpp:137] Memory required for data: 857006080
I1210 02:24:35.420176 31653 layer_factory.hpp:77] Creating layer relu3_1
I1210 02:24:35.420187 31653 net.cpp:84] Creating Layer relu3_1
I1210 02:24:35.420190 31653 net.cpp:406] relu3_1 <- conv3_1
I1210 02:24:35.420195 31653 net.cpp:367] relu3_1 -> conv3_1 (in-place)
I1210 02:24:35.420723 31653 net.cpp:122] Setting up relu3_1
I1210 02:24:35.420747 31653 net.cpp:129] Top shape: 10 256 56 56 (8028160)
I1210 02:24:35.420750 31653 net.cpp:137] Memory required for data: 889118720
I1210 02:24:35.420754 31653 layer_factory.hpp:77] Creating layer conv3_2
I1210 02:24:35.420763 31653 net.cpp:84] Creating Layer conv3_2
I1210 02:24:35.420768 31653 net.cpp:406] conv3_2 <- conv3_1
I1210 02:24:35.420773 31653 net.cpp:380] conv3_2 -> conv3_2
I1210 02:24:35.425369 31653 net.cpp:122] Setting up conv3_2
I1210 02:24:35.425397 31653 net.cpp:129] Top shape: 10 256 56 56 (8028160)
I1210 02:24:35.425401 31653 net.cpp:137] Memory required for data: 921231360
I1210 02:24:35.425408 31653 layer_factory.hpp:77] Creating layer relu3_2
I1210 02:24:35.425417 31653 net.cpp:84] Creating Layer relu3_2
I1210 02:24:35.425421 31653 net.cpp:406] relu3_2 <- conv3_2
I1210 02:24:35.425426 31653 net.cpp:367] relu3_2 -> conv3_2 (in-place)
I1210 02:24:35.426400 31653 net.cpp:122] Setting up relu3_2
I1210 02:24:35.426429 31653 net.cpp:129] Top shape: 10 256 56 56 (8028160)
I1210 02:24:35.426432 31653 net.cpp:137] Memory required for data: 953344000
I1210 02:24:35.426435 31653 layer_factory.hpp:77] Creating layer conv3_3
I1210 02:24:35.426447 31653 net.cpp:84] Creating Layer conv3_3
I1210 02:24:35.426451 31653 net.cpp:406] conv3_3 <- conv3_2
I1210 02:24:35.426456 31653 net.cpp:380] conv3_3 -> conv3_3
I1210 02:24:35.431015 31653 net.cpp:122] Setting up conv3_3
I1210 02:24:35.431044 31653 net.cpp:129] Top shape: 10 256 56 56 (8028160)
I1210 02:24:35.431048 31653 net.cpp:137] Memory required for data: 985456640
I1210 02:24:35.431058 31653 layer_factory.hpp:77] Creating layer relu3_3
I1210 02:24:35.431067 31653 net.cpp:84] Creating Layer relu3_3
I1210 02:24:35.431071 31653 net.cpp:406] relu3_3 <- conv3_3
I1210 02:24:35.431075 31653 net.cpp:367] relu3_3 -> conv3_3 (in-place)
I1210 02:24:35.431839 31653 net.cpp:122] Setting up relu3_3
I1210 02:24:35.431866 31653 net.cpp:129] Top shape: 10 256 56 56 (8028160)
I1210 02:24:35.431870 31653 net.cpp:137] Memory required for data: 1017569280
I1210 02:24:35.431874 31653 layer_factory.hpp:77] Creating layer pool3
I1210 02:24:35.431881 31653 net.cpp:84] Creating Layer pool3
I1210 02:24:35.431885 31653 net.cpp:406] pool3 <- conv3_3
I1210 02:24:35.431891 31653 net.cpp:380] pool3 -> pool3
I1210 02:24:35.431955 31653 net.cpp:122] Setting up pool3
I1210 02:24:35.431975 31653 net.cpp:129] Top shape: 10 256 28 28 (2007040)
I1210 02:24:35.431978 31653 net.cpp:137] Memory required for data: 1025597440
I1210 02:24:35.431982 31653 layer_factory.hpp:77] Creating layer conv4_1
I1210 02:24:35.431993 31653 net.cpp:84] Creating Layer conv4_1
I1210 02:24:35.431995 31653 net.cpp:406] conv4_1 <- pool3
I1210 02:24:35.432000 31653 net.cpp:380] conv4_1 -> conv4_1
I1210 02:24:35.437755 31653 net.cpp:122] Setting up conv4_1
I1210 02:24:35.437788 31653 net.cpp:129] Top shape: 10 512 28 28 (4014080)
I1210 02:24:35.437793 31653 net.cpp:137] Memory required for data: 1041653760
I1210 02:24:35.437800 31653 layer_factory.hpp:77] Creating layer relu4_1
I1210 02:24:35.437809 31653 net.cpp:84] Creating Layer relu4_1
I1210 02:24:35.437813 31653 net.cpp:406] relu4_1 <- conv4_1
I1210 02:24:35.437817 31653 net.cpp:367] relu4_1 -> conv4_1 (in-place)
I1210 02:24:35.438762 31653 net.cpp:122] Setting up relu4_1
I1210 02:24:35.438796 31653 net.cpp:129] Top shape: 10 512 28 28 (4014080)
I1210 02:24:35.438800 31653 net.cpp:137] Memory required for data: 1057710080
I1210 02:24:35.438803 31653 layer_factory.hpp:77] Creating layer conv4_2
I1210 02:24:35.438813 31653 net.cpp:84] Creating Layer conv4_2
I1210 02:24:35.438817 31653 net.cpp:406] conv4_2 <- conv4_1
I1210 02:24:35.438822 31653 net.cpp:380] conv4_2 -> conv4_2
I1210 02:24:35.446588 31653 net.cpp:122] Setting up conv4_2
I1210 02:24:35.446617 31653 net.cpp:129] Top shape: 10 512 28 28 (4014080)
I1210 02:24:35.446621 31653 net.cpp:137] Memory required for data: 1073766400
I1210 02:24:35.446635 31653 layer_factory.hpp:77] Creating layer relu4_2
I1210 02:24:35.446643 31653 net.cpp:84] Creating Layer relu4_2
I1210 02:24:35.446647 31653 net.cpp:406] relu4_2 <- conv4_2
I1210 02:24:35.446653 31653 net.cpp:367] relu4_2 -> conv4_2 (in-place)
I1210 02:24:35.447180 31653 net.cpp:122] Setting up relu4_2
I1210 02:24:35.447211 31653 net.cpp:129] Top shape: 10 512 28 28 (4014080)
I1210 02:24:35.447214 31653 net.cpp:137] Memory required for data: 1089822720
I1210 02:24:35.447217 31653 layer_factory.hpp:77] Creating layer conv4_3
I1210 02:24:35.447227 31653 net.cpp:84] Creating Layer conv4_3
I1210 02:24:35.447230 31653 net.cpp:406] conv4_3 <- conv4_2
I1210 02:24:35.447235 31653 net.cpp:380] conv4_3 -> conv4_3
I1210 02:24:35.454891 31653 net.cpp:122] Setting up conv4_3
I1210 02:24:35.454923 31653 net.cpp:129] Top shape: 10 512 28 28 (4014080)
I1210 02:24:35.454928 31653 net.cpp:137] Memory required for data: 1105879040
I1210 02:24:35.454936 31653 layer_factory.hpp:77] Creating layer relu4_3
I1210 02:24:35.454942 31653 net.cpp:84] Creating Layer relu4_3
I1210 02:24:35.454946 31653 net.cpp:406] relu4_3 <- conv4_3
I1210 02:24:35.454951 31653 net.cpp:367] relu4_3 -> conv4_3 (in-place)
I1210 02:24:35.455492 31653 net.cpp:122] Setting up relu4_3
I1210 02:24:35.455515 31653 net.cpp:129] Top shape: 10 512 28 28 (4014080)
I1210 02:24:35.455518 31653 net.cpp:137] Memory required for data: 1121935360
I1210 02:24:35.455523 31653 layer_factory.hpp:77] Creating layer pool4
I1210 02:24:35.455529 31653 net.cpp:84] Creating Layer pool4
I1210 02:24:35.455533 31653 net.cpp:406] pool4 <- conv4_3
I1210 02:24:35.455540 31653 net.cpp:380] pool4 -> pool4
I1210 02:24:35.455605 31653 net.cpp:122] Setting up pool4
I1210 02:24:35.455624 31653 net.cpp:129] Top shape: 10 512 14 14 (1003520)
I1210 02:24:35.455627 31653 net.cpp:137] Memory required for data: 1125949440
I1210 02:24:35.455631 31653 layer_factory.hpp:77] Creating layer conv5_1
I1210 02:24:35.455641 31653 net.cpp:84] Creating Layer conv5_1
I1210 02:24:35.455644 31653 net.cpp:406] conv5_1 <- pool4
I1210 02:24:35.455651 31653 net.cpp:380] conv5_1 -> conv5_1
I1210 02:24:35.463346 31653 net.cpp:122] Setting up conv5_1
I1210 02:24:35.463376 31653 net.cpp:129] Top shape: 10 512 14 14 (1003520)
I1210 02:24:35.463380 31653 net.cpp:137] Memory required for data: 1129963520
I1210 02:24:35.463387 31653 layer_factory.hpp:77] Creating layer relu5_1
I1210 02:24:35.463394 31653 net.cpp:84] Creating Layer relu5_1
I1210 02:24:35.463397 31653 net.cpp:406] relu5_1 <- conv5_1
I1210 02:24:35.463402 31653 net.cpp:367] relu5_1 -> conv5_1 (in-place)
I1210 02:24:35.464399 31653 net.cpp:122] Setting up relu5_1
I1210 02:24:35.464427 31653 net.cpp:129] Top shape: 10 512 14 14 (1003520)
I1210 02:24:35.464432 31653 net.cpp:137] Memory required for data: 1133977600
I1210 02:24:35.464434 31653 layer_factory.hpp:77] Creating layer conv5_2
I1210 02:24:35.464444 31653 net.cpp:84] Creating Layer conv5_2
I1210 02:24:35.464448 31653 net.cpp:406] conv5_2 <- conv5_1
I1210 02:24:35.464453 31653 net.cpp:380] conv5_2 -> conv5_2
I1210 02:24:35.472162 31653 net.cpp:122] Setting up conv5_2
I1210 02:24:35.472195 31653 net.cpp:129] Top shape: 10 512 14 14 (1003520)
I1210 02:24:35.472200 31653 net.cpp:137] Memory required for data: 1137991680
I1210 02:24:35.472208 31653 layer_factory.hpp:77] Creating layer relu5_2
I1210 02:24:35.472215 31653 net.cpp:84] Creating Layer relu5_2
I1210 02:24:35.472218 31653 net.cpp:406] relu5_2 <- conv5_2
I1210 02:24:35.472223 31653 net.cpp:367] relu5_2 -> conv5_2 (in-place)
I1210 02:24:35.472751 31653 net.cpp:122] Setting up relu5_2
I1210 02:24:35.472779 31653 net.cpp:129] Top shape: 10 512 14 14 (1003520)
I1210 02:24:35.472782 31653 net.cpp:137] Memory required for data: 1142005760
I1210 02:24:35.472787 31653 layer_factory.hpp:77] Creating layer conv5_3
I1210 02:24:35.472797 31653 net.cpp:84] Creating Layer conv5_3
I1210 02:24:35.472800 31653 net.cpp:406] conv5_3 <- conv5_2
I1210 02:24:35.472805 31653 net.cpp:380] conv5_3 -> conv5_3
I1210 02:24:35.480566 31653 net.cpp:122] Setting up conv5_3
I1210 02:24:35.480597 31653 net.cpp:129] Top shape: 10 512 14 14 (1003520)
I1210 02:24:35.480602 31653 net.cpp:137] Memory required for data: 1146019840
I1210 02:24:35.480608 31653 layer_factory.hpp:77] Creating layer relu5_3
I1210 02:24:35.480615 31653 net.cpp:84] Creating Layer relu5_3
I1210 02:24:35.480618 31653 net.cpp:406] relu5_3 <- conv5_3
I1210 02:24:35.480623 31653 net.cpp:367] relu5_3 -> conv5_3 (in-place)
I1210 02:24:35.481186 31653 net.cpp:122] Setting up relu5_3
I1210 02:24:35.481209 31653 net.cpp:129] Top shape: 10 512 14 14 (1003520)
I1210 02:24:35.481214 31653 net.cpp:137] Memory required for data: 1150033920
I1210 02:24:35.481216 31653 layer_factory.hpp:77] Creating layer pool5
I1210 02:24:35.481225 31653 net.cpp:84] Creating Layer pool5
I1210 02:24:35.481228 31653 net.cpp:406] pool5 <- conv5_3
I1210 02:24:35.481236 31653 net.cpp:380] pool5 -> pool5
I1210 02:24:35.481317 31653 net.cpp:122] Setting up pool5
I1210 02:24:35.481335 31653 net.cpp:129] Top shape: 10 512 7 7 (250880)
I1210 02:24:35.481338 31653 net.cpp:137] Memory required for data: 1151037440
I1210 02:24:35.481341 31653 layer_factory.hpp:77] Creating layer fc6
I1210 02:24:35.481356 31653 net.cpp:84] Creating Layer fc6
I1210 02:24:35.481359 31653 net.cpp:406] fc6 <- pool5
I1210 02:24:35.481366 31653 net.cpp:380] fc6 -> fc6
I1210 02:24:35.788292 31653 net.cpp:122] Setting up fc6
I1210 02:24:35.788359 31653 net.cpp:129] Top shape: 10 4096 (40960)
I1210 02:24:35.788364 31653 net.cpp:137] Memory required for data: 1151201280
I1210 02:24:35.788379 31653 layer_factory.hpp:77] Creating layer relu6
I1210 02:24:35.788394 31653 net.cpp:84] Creating Layer relu6
I1210 02:24:35.788399 31653 net.cpp:406] relu6 <- fc6
I1210 02:24:35.788414 31653 net.cpp:367] relu6 -> fc6 (in-place)
I1210 02:24:35.789978 31653 net.cpp:122] Setting up relu6
I1210 02:24:35.790011 31653 net.cpp:129] Top shape: 10 4096 (40960)
I1210 02:24:35.790015 31653 net.cpp:137] Memory required for data: 1151365120
I1210 02:24:35.790019 31653 layer_factory.hpp:77] Creating layer drop6
I1210 02:24:35.790029 31653 net.cpp:84] Creating Layer drop6
I1210 02:24:35.790031 31653 net.cpp:406] drop6 <- fc6
I1210 02:24:35.790036 31653 net.cpp:367] drop6 -> fc6 (in-place)
I1210 02:24:35.790083 31653 net.cpp:122] Setting up drop6
I1210 02:24:35.790091 31653 net.cpp:129] Top shape: 10 4096 (40960)
I1210 02:24:35.790094 31653 net.cpp:137] Memory required for data: 1151528960
I1210 02:24:35.790097 31653 layer_factory.hpp:77] Creating layer fc7
I1210 02:24:35.790105 31653 net.cpp:84] Creating Layer fc7
I1210 02:24:35.790122 31653 net.cpp:406] fc7 <- fc6
I1210 02:24:35.790132 31653 net.cpp:380] fc7 -> fc7
I1210 02:24:35.840881 31653 net.cpp:122] Setting up fc7
I1210 02:24:35.840945 31653 net.cpp:129] Top shape: 10 4096 (40960)
I1210 02:24:35.840951 31653 net.cpp:137] Memory required for data: 1151692800
I1210 02:24:35.840965 31653 layer_factory.hpp:77] Creating layer relu7
I1210 02:24:35.840981 31653 net.cpp:84] Creating Layer relu7
I1210 02:24:35.840986 31653 net.cpp:406] relu7 <- fc7
I1210 02:24:35.840993 31653 net.cpp:367] relu7 -> fc7 (in-place)
I1210 02:24:35.841722 31653 net.cpp:122] Setting up relu7
I1210 02:24:35.841749 31653 net.cpp:129] Top shape: 10 4096 (40960)
I1210 02:24:35.841753 31653 net.cpp:137] Memory required for data: 1151856640
I1210 02:24:35.841756 31653 layer_factory.hpp:77] Creating layer drop7
I1210 02:24:35.841763 31653 net.cpp:84] Creating Layer drop7
I1210 02:24:35.841768 31653 net.cpp:406] drop7 <- fc7
I1210 02:24:35.841771 31653 net.cpp:367] drop7 -> fc7 (in-place)
I1210 02:24:35.841819 31653 net.cpp:122] Setting up drop7
I1210 02:24:35.841837 31653 net.cpp:129] Top shape: 10 4096 (40960)
I1210 02:24:35.841840 31653 net.cpp:137] Memory required for data: 1152020480
I1210 02:24:35.841842 31653 layer_factory.hpp:77] Creating layer fc8
I1210 02:24:35.841850 31653 net.cpp:84] Creating Layer fc8
I1210 02:24:35.841853 31653 net.cpp:406] fc8 <- fc7
I1210 02:24:35.841861 31653 net.cpp:380] fc8 -> fc8
I1210 02:24:35.851130 31653 net.cpp:122] Setting up fc8
I1210 02:24:35.851162 31653 net.cpp:129] Top shape: 10 1000 (10000)
I1210 02:24:35.851166 31653 net.cpp:137] Memory required for data: 1152060480
I1210 02:24:35.851174 31653 layer_factory.hpp:77] Creating layer prob
I1210 02:24:35.851183 31653 net.cpp:84] Creating Layer prob
I1210 02:24:35.851186 31653 net.cpp:406] prob <- fc8
I1210 02:24:35.851191 31653 net.cpp:380] prob -> prob
I1210 02:24:35.851884 31653 net.cpp:122] Setting up prob
I1210 02:24:35.851908 31653 net.cpp:129] Top shape: 10 1000 (10000)
I1210 02:24:35.851912 31653 net.cpp:137] Memory required for data: 1152100480
I1210 02:24:35.851917 31653 net.cpp:200] prob does not need backward computation.
I1210 02:24:35.851920 31653 net.cpp:200] fc8 does not need backward computation.
I1210 02:24:35.851922 31653 net.cpp:200] drop7 does not need backward computation.
I1210 02:24:35.851925 31653 net.cpp:200] relu7 does not need backward computation.
…
